Namespace(augment=0, batchSize=8, beta=0.999, cuda=True, datapath='/data2/virtual3', devices='0,1,2,3', domain_transfer=0, endEpoch=200, flowDiv=1.0, logFile='girl-ir-train-dispCSRes.log', lr=0.01, manualSeed=9676, model='', momentum=0.9, outf='./models/girl-ir-dispCSRes', showFreq=1, startEpoch=0, tdlist='real_sgm_release.list', trainlist='./lists/girl_with_ir2_TRAIN.list', vallist='./lists/girl_with_ir2_TEST.list', workers=8)
"DataParallel(
  (module): DispNetCSRes(
    (dispnetc): DispNetC(
      (conv1): Sequential(
        (0): Conv2d(3, 64, kernel_size=(7, 7), stride=(2, 2), padding=(3, 3))
        (1): LeakyReLU(negative_slope=0.1, inplace)
      )
      (conv2): ResBlock(
        (conv1): Conv2d(64, 128, kernel_size=(3, 3), stride=(2, 2), padding=(1, 1))
        (bn1): BatchNorm2d(128, eps=1e-05, momentum=0.1, affine=True, track_running_stats=True)
        (relu): ReLU(inplace)
        (conv2): Conv2d(128, 128, kernel_size=(3, 3), stride=(1, 1), padding=(1, 1))
        (bn2): BatchNorm2d(128, eps=1e-05, momentum=0.1, affine=True, track_running_stats=True)
        (shortcut): Sequential(
          (0): Conv2d(64, 128, kernel_size=(1, 1), stride=(2, 2))
          (1): BatchNorm2d(128, eps=1e-05, momentum=0.1, affine=True, track_running_stats=True)
        )
      )
      (conv3): ResBlock(
        (conv1): Conv2d(128, 256, kernel_size=(3, 3), stride=(2, 2), padding=(1, 1))
        (bn1): BatchNorm2d(256, eps=1e-05, momentum=0.1, affine=True, track_running_stats=True)
        (relu): ReLU(inplace)
        (conv2): Conv2d(256, 256, kernel_size=(3, 3), stride=(1, 1), padding=(1, 1))
        (bn2): BatchNorm2d(256, eps=1e-05, momentum=0.1, affine=True, track_running_stats=True)
        (shortcut): Sequential(
          (0): Conv2d(128, 256, kernel_size=(1, 1), stride=(2, 2))
          (1): BatchNorm2d(256, eps=1e-05, momentum=0.1, affine=True, track_running_stats=True)
        )
      )
      (conv_redir): ResBlock(
        (conv1): Conv2d(256, 32, kernel_size=(3, 3), stride=(1, 1), padding=(1, 1))
        (bn1): BatchNorm2d(32, eps=1e-05, momentum=0.1, affine=True, track_running_stats=True)
        (relu): ReLU(inplace)
        (conv2): Conv2d(32, 32, kernel_size=(3, 3), stride=(1, 1), padding=(1, 1))
        (bn2): BatchNorm2d(32, eps=1e-05, momentum=0.1, affine=True, track_running_stats=True)
        (shortcut): Sequential(
          (0): Conv2d(256, 32, kernel_size=(1, 1), stride=(1, 1))
          (1): BatchNorm2d(32, eps=1e-05, momentum=0.1, affine=True, track_running_stats=True)
        )
      )
      (corr): Correlation()
      (corr_activation): LeakyReLU(negative_slope=0.1, inplace)
      (conv3_1): ResBlock(
        (conv1): Conv2d(473, 256, kernel_size=(3, 3), stride=(1, 1), padding=(1, 1))
        (bn1): BatchNorm2d(256, eps=1e-05, momentum=0.1, affine=True, track_running_stats=True)
        (relu): ReLU(inplace)
        (conv2): Conv2d(256, 256, kernel_size=(3, 3), stride=(1, 1), padding=(1, 1))
        (bn2): BatchNorm2d(256, eps=1e-05, momentum=0.1, affine=True, track_running_stats=True)
        (shortcut): Sequential(
          (0): Conv2d(473, 256, kernel_size=(1, 1), stride=(1, 1))
          (1): BatchNorm2d(256, eps=1e-05, momentum=0.1, affine=True, track_running_stats=True)
        )
      )
      (conv4): ResBlock(
        (conv1): Conv2d(256, 512, kernel_size=(3, 3), stride=(2, 2), padding=(1, 1))
        (bn1): BatchNorm2d(512, eps=1e-05, momentum=0.1, affine=True, track_running_stats=True)
        (relu): ReLU(inplace)
        (conv2): Conv2d(512, 512, kernel_size=(3, 3), stride=(1, 1), padding=(1, 1))
        (bn2): BatchNorm2d(512, eps=1e-05, momentum=0.1, affine=True, track_running_stats=True)
        (shortcut): Sequential(
          (0): Conv2d(256, 512, kernel_size=(1, 1), stride=(2, 2))
          (1): BatchNorm2d(512, eps=1e-05, momentum=0.1, affine=True, track_running_stats=True)
        )
      )
      (conv4_1): ResBlock(
        (conv1): Conv2d(512, 512, kernel_size=(3, 3), stride=(1, 1), padding=(1, 1))
        (bn1): BatchNorm2d(512, eps=1e-05, momentum=0.1, affine=True, track_running_stats=True)
        (relu): ReLU(inplace)
        (conv2): Conv2d(512, 512, kernel_size=(3, 3), stride=(1, 1), padding=(1, 1))
        (bn2): BatchNorm2d(512, eps=1e-05, momentum=0.1, affine=True, track_running_stats=True)
      )
      (conv5): ResBlock(
        (conv1): Conv2d(512, 512, kernel_size=(3, 3), stride=(2, 2), padding=(1, 1))
        (bn1): BatchNorm2d(512, eps=1e-05, momentum=0.1, affine=True, track_running_stats=True)
        (relu): ReLU(inplace)
        (conv2): Conv2d(512, 512, kernel_size=(3, 3), stride=(1, 1), padding=(1, 1))
        (bn2): BatchNorm2d(512, eps=1e-05, momentum=0.1, affine=True, track_running_stats=True)
        (shortcut): Sequential(
          (0): Conv2d(512, 512, kernel_size=(1, 1), stride=(2, 2))
          (1): BatchNorm2d(512, eps=1e-05, momentum=0.1, affine=True, track_running_stats=True)
        )
      )
      (conv5_1): ResBlock(
        (conv1): Conv2d(512, 512, kernel_size=(3, 3), stride=(1, 1), padding=(1, 1))
        (bn1): BatchNorm2d(512, eps=1e-05, momentum=0.1, affine=True, track_running_stats=True)
        (relu): ReLU(inplace)
        (conv2): Conv2d(512, 512, kernel_size=(3, 3), stride=(1, 1), padding=(1, 1))
        (bn2): BatchNorm2d(512, eps=1e-05, momentum=0.1, affine=True, track_running_stats=True)
      )
      (conv6): ResBlock(
        (conv1): Conv2d(512, 1024, kernel_size=(3, 3), stride=(2, 2), padding=(1, 1))
        (bn1): BatchNorm2d(1024, eps=1e-05, momentum=0.1, affine=True, track_running_stats=True)
        (relu): ReLU(inplace)
        (conv2): Conv2d(1024, 1024, kernel_size=(3, 3), stride=(1, 1), padding=(1, 1))
        (bn2): BatchNorm2d(1024, eps=1e-05, momentum=0.1, affine=True, track_running_stats=True)
        (shortcut): Sequential(
          (0): Conv2d(512, 1024, kernel_size=(1, 1), stride=(2, 2))
          (1): BatchNorm2d(1024, eps=1e-05, momentum=0.1, affine=True, track_running_stats=True)
        )
      )
      (conv6_1): ResBlock(
        (conv1): Conv2d(1024, 1024, kernel_size=(3, 3), stride=(1, 1), padding=(1, 1))
        (bn1): BatchNorm2d(1024, eps=1e-05, momentum=0.1, affine=True, track_running_stats=True)
        (relu): ReLU(inplace)
        (conv2): Conv2d(1024, 1024, kernel_size=(3, 3), stride=(1, 1), padding=(1, 1))
        (bn2): BatchNorm2d(1024, eps=1e-05, momentum=0.1, affine=True, track_running_stats=True)
      )
      (pred_flow6): Conv2d(1024, 1, kernel_size=(3, 3), stride=(1, 1), padding=(1, 1), bias=False)
      (iconv5): ConvTranspose2d(1025, 512, kernel_size=(3, 3), stride=(1, 1), padding=(1, 1))
      (iconv4): ConvTranspose2d(769, 256, kernel_size=(3, 3), stride=(1, 1), padding=(1, 1))
      (iconv3): ConvTranspose2d(385, 128, kernel_size=(3, 3), stride=(1, 1), padding=(1, 1))
      (iconv2): ConvTranspose2d(193, 64, kernel_size=(3, 3), stride=(1, 1), padding=(1, 1))
      (iconv1): ConvTranspose2d(97, 32, kernel_size=(3, 3), stride=(1, 1), padding=(1, 1))
      (iconv0): ConvTranspose2d(20, 16, kernel_size=(3, 3), stride=(1, 1), padding=(1, 1))
      (upconv5): Sequential(
        (0): ConvTranspose2d(1024, 512, kernel_size=(4, 4), stride=(2, 2), padding=(1, 1), bias=False)
        (1): LeakyReLU(negative_slope=0.1, inplace)
      )
      (upflow6to5): ConvTranspose2d(1, 1, kernel_size=(4, 4), stride=(2, 2), padding=(1, 1), bias=False)
      (pred_flow5): Conv2d(512, 1, kernel_size=(3, 3), stride=(1, 1), padding=(1, 1), bias=False)
      (upconv4): Sequential(
        (0): ConvTranspose2d(512, 256, kernel_size=(4, 4), stride=(2, 2), padding=(1, 1), bias=False)
        (1): LeakyReLU(negative_slope=0.1, inplace)
      )
      (upflow5to4): ConvTranspose2d(1, 1, kernel_size=(4, 4), stride=(2, 2), padding=(1, 1), bias=False)
      (pred_flow4): Conv2d(256, 1, kernel_size=(3, 3), stride=(1, 1), padding=(1, 1), bias=False)
      (upconv3): Sequential(
        (0): ConvTranspose2d(256, 128, kernel_size=(4, 4), stride=(2, 2), padding=(1, 1), bias=False)
        (1): LeakyReLU(negative_slope=0.1, inplace)
      )
      (upflow4to3): ConvTranspose2d(1, 1, kernel_size=(4, 4), stride=(2, 2), padding=(1, 1), bias=False)
      (pred_flow3): Conv2d(128, 1, kernel_size=(3, 3), stride=(1, 1), padding=(1, 1), bias=False)
      (upconv2): Sequential(
        (0): ConvTranspose2d(128, 64, kernel_size=(4, 4), stride=(2, 2), padding=(1, 1), bias=False)
        (1): LeakyReLU(negative_slope=0.1, inplace)
      )
      (upflow3to2): ConvTranspose2d(1, 1, kernel_size=(4, 4), stride=(2, 2), padding=(1, 1), bias=False)
      (pred_flow2): Conv2d(64, 1, kernel_size=(3, 3), stride=(1, 1), padding=(1, 1), bias=False)
      (upconv1): Sequential(
        (0): ConvTranspose2d(64, 32, kernel_size=(4, 4), stride=(2, 2), padding=(1, 1), bias=False)
        (1): LeakyReLU(negative_slope=0.1, inplace)
      )
      (upflow2to1): ConvTranspose2d(1, 1, kernel_size=(4, 4), stride=(2, 2), padding=(1, 1), bias=False)
      (pred_flow1): Conv2d(32, 1, kernel_size=(3, 3), stride=(1, 1), padding=(1, 1), bias=False)
      (upconv0): Sequential(
        (0): ConvTranspose2d(32, 16, kernel_size=(4, 4), stride=(2, 2), padding=(1, 1), bias=False)
        (1): LeakyReLU(negative_slope=0.1, inplace)
      )
      (upflow1to0): ConvTranspose2d(1, 1, kernel_size=(4, 4), stride=(2, 2), padding=(1, 1), bias=False)
      (pred_flow0): Conv2d(16, 1, kernel_size=(3, 3), stride=(1, 1), padding=(1, 1), bias=False)
    )
    (channelnorm): ChannelNorm()
    (resample1): Resample2d()
    (dispnetres): DispNetRes(
      (conv1): Sequential(
        (0): Conv2d(11, 64, kernel_size=(7, 7), stride=(2, 2), padding=(3, 3))
        (1): LeakyReLU(negative_slope=0.1, inplace)
      )
      (conv2): ResBlock(
        (conv1): Conv2d(64, 128, kernel_size=(3, 3), stride=(2, 2), padding=(1, 1))
        (bn1): BatchNorm2d(128, eps=1e-05, momentum=0.1, affine=True, track_running_stats=True)
        (relu): ReLU(inplace)
        (conv2): Conv2d(128, 128, kernel_size=(3, 3), stride=(1, 1), padding=(1, 1))
        (bn2): BatchNorm2d(128, eps=1e-05, momentum=0.1, affine=True, track_running_stats=True)
        (shortcut): Sequential(
          (0): Conv2d(64, 128, kernel_size=(1, 1), stride=(2, 2))
          (1): BatchNorm2d(128, eps=1e-05, momentum=0.1, affine=True, track_running_stats=True)
        )
      )
      (conv3): ResBlock(
        (conv1): Conv2d(128, 256, kernel_size=(3, 3), stride=(2, 2), padding=(1, 1))
        (bn1): BatchNorm2d(256, eps=1e-05, momentum=0.1, affine=True, track_running_stats=True)
        (relu): ReLU(inplace)
        (conv2): Conv2d(256, 256, kernel_size=(3, 3), stride=(1, 1), padding=(1, 1))
        (bn2): BatchNorm2d(256, eps=1e-05, momentum=0.1, affine=True, track_running_stats=True)
        (shortcut): Sequential(
          (0): Conv2d(128, 256, kernel_size=(1, 1), stride=(2, 2))
          (1): BatchNorm2d(256, eps=1e-05, momentum=0.1, affine=True, track_running_stats=True)
        )
      )
      (conv3_1): ResBlock(
        (conv1): Conv2d(256, 256, kernel_size=(3, 3), stride=(1, 1), padding=(1, 1))
        (bn1): BatchNorm2d(256, eps=1e-05, momentum=0.1, affine=True, track_running_stats=True)
        (relu): ReLU(inplace)
        (conv2): Conv2d(256, 256, kernel_size=(3, 3), stride=(1, 1), padding=(1, 1))
        (bn2): BatchNorm2d(256, eps=1e-05, momentum=0.1, affine=True, track_running_stats=True)
      )
      (conv4): ResBlock(
        (conv1): Conv2d(256, 512, kernel_size=(3, 3), stride=(2, 2), padding=(1, 1))
        (bn1): BatchNorm2d(512, eps=1e-05, momentum=0.1, affine=True, track_running_stats=True)
        (relu): ReLU(inplace)
        (conv2): Conv2d(512, 512, kernel_size=(3, 3), stride=(1, 1), padding=(1, 1))
        (bn2): BatchNorm2d(512, eps=1e-05, momentum=0.1, affine=True, track_running_stats=True)
        (shortcut): Sequential(
          (0): Conv2d(256, 512, kernel_size=(1, 1), stride=(2, 2))
          (1): BatchNorm2d(512, eps=1e-05, momentum=0.1, affine=True, track_running_stats=True)
        )
      )
      (conv4_1): ResBlock(
        (conv1): Conv2d(512, 512, kernel_size=(3, 3), stride=(1, 1), padding=(1, 1))
        (bn1): BatchNorm2d(512, eps=1e-05, momentum=0.1, affine=True, track_running_stats=True)
        (relu): ReLU(inplace)
        (conv2): Conv2d(512, 512, kernel_size=(3, 3), stride=(1, 1), padding=(1, 1))
        (bn2): BatchNorm2d(512, eps=1e-05, momentum=0.1, affine=True, track_running_stats=True)
      )
      (conv5): ResBlock(
        (conv1): Conv2d(512, 512, kernel_size=(3, 3), stride=(2, 2), padding=(1, 1))
        (bn1): BatchNorm2d(512, eps=1e-05, momentum=0.1, affine=True, track_running_stats=True)
        (relu): ReLU(inplace)
        (conv2): Conv2d(512, 512, kernel_size=(3, 3), stride=(1, 1), padding=(1, 1))
        (bn2): BatchNorm2d(512, eps=1e-05, momentum=0.1, affine=True, track_running_stats=True)
        (shortcut): Sequential(
          (0): Conv2d(512, 512, kernel_size=(1, 1), stride=(2, 2))
          (1): BatchNorm2d(512, eps=1e-05, momentum=0.1, affine=True, track_running_stats=True)
        )
      )
      (conv5_1): ResBlock(
        (conv1): Conv2d(512, 512, kernel_size=(3, 3), stride=(1, 1), padding=(1, 1))
        (bn1): BatchNorm2d(512, eps=1e-05, momentum=0.1, affine=True, track_running_stats=True)
        (relu): ReLU(inplace)
        (conv2): Conv2d(512, 512, kernel_size=(3, 3), stride=(1, 1), padding=(1, 1))
        (bn2): BatchNorm2d(512, eps=1e-05, momentum=0.1, affine=True, track_running_stats=True)
      )
      (conv6): ResBlock(
        (conv1): Conv2d(512, 1024, kernel_size=(3, 3), stride=(2, 2), padding=(1, 1))
        (bn1): BatchNorm2d(1024, eps=1e-05, momentum=0.1, affine=True, track_running_stats=True)
        (relu): ReLU(inplace)
        (conv2): Conv2d(1024, 1024, kernel_size=(3, 3), stride=(1, 1), padding=(1, 1))
        (bn2): BatchNorm2d(1024, eps=1e-05, momentum=0.1, affine=True, track_running_stats=True)
        (shortcut): Sequential(
          (0): Conv2d(512, 1024, kernel_size=(1, 1), stride=(2, 2))
          (1): BatchNorm2d(1024, eps=1e-05, momentum=0.1, affine=True, track_running_stats=True)
        )
      )
      (conv6_1): ResBlock(
        (conv1): Conv2d(1024, 1024, kernel_size=(3, 3), stride=(1, 1), padding=(1, 1))
        (bn1): BatchNorm2d(1024, eps=1e-05, momentum=0.1, affine=True, track_running_stats=True)
        (relu): ReLU(inplace)
        (conv2): Conv2d(1024, 1024, kernel_size=(3, 3), stride=(1, 1), padding=(1, 1))
        (bn2): BatchNorm2d(1024, eps=1e-05, momentum=0.1, affine=True, track_running_stats=True)
      )
      (pred_res6): Conv2d(1024, 1, kernel_size=(3, 3), stride=(1, 1), padding=(1, 1), bias=False)
      (iconv5): ConvTranspose2d(1025, 512, kernel_size=(3, 3), stride=(1, 1), padding=(1, 1))
      (iconv4): ConvTranspose2d(769, 256, kernel_size=(3, 3), stride=(1, 1), padding=(1, 1))
      (iconv3): ConvTranspose2d(385, 128, kernel_size=(3, 3), stride=(1, 1), padding=(1, 1))
      (iconv2): ConvTranspose2d(193, 64, kernel_size=(3, 3), stride=(1, 1), padding=(1, 1))
      (iconv1): ConvTranspose2d(97, 32, kernel_size=(3, 3), stride=(1, 1), padding=(1, 1))
      (iconv0): ConvTranspose2d(20, 16, kernel_size=(3, 3), stride=(1, 1), padding=(1, 1))
      (upconv5): Sequential(
        (0): ConvTranspose2d(1024, 512, kernel_size=(4, 4), stride=(2, 2), padding=(1, 1), bias=False)
        (1): LeakyReLU(negative_slope=0.1, inplace)
      )
      (upflow6to5): ConvTranspose2d(1, 1, kernel_size=(4, 4), stride=(2, 2), padding=(1, 1), bias=False)
      (pred_res5): Conv2d(512, 1, kernel_size=(3, 3), stride=(1, 1), padding=(1, 1), bias=False)
      (upconv4): Sequential(
        (0): ConvTranspose2d(512, 256, kernel_size=(4, 4), stride=(2, 2), padding=(1, 1), bias=False)
        (1): LeakyReLU(negative_slope=0.1, inplace)
      )
      (upflow5to4): ConvTranspose2d(1, 1, kernel_size=(4, 4), stride=(2, 2), padding=(1, 1), bias=False)
      (pred_res4): Conv2d(256, 1, kernel_size=(3, 3), stride=(1, 1), padding=(1, 1), bias=False)
      (upconv3): Sequential(
        (0): ConvTranspose2d(256, 128, kernel_size=(4, 4), stride=(2, 2), padding=(1, 1), bias=False)
        (1): LeakyReLU(negative_slope=0.1, inplace)
      )
      (upflow4to3): ConvTranspose2d(1, 1, kernel_size=(4, 4), stride=(2, 2), padding=(1, 1), bias=False)
      (pred_res3): Conv2d(128, 1, kernel_size=(3, 3), stride=(1, 1), padding=(1, 1), bias=False)
      (upconv2): Sequential(
        (0): ConvTranspose2d(128, 64, kernel_size=(4, 4), stride=(2, 2), padding=(1, 1), bias=False)
        (1): LeakyReLU(negative_slope=0.1, inplace)
      )
      (upflow3to2): ConvTranspose2d(1, 1, kernel_size=(4, 4), stride=(2, 2), padding=(1, 1), bias=False)
      (pred_res2): Conv2d(64, 1, kernel_size=(3, 3), stride=(1, 1), padding=(1, 1), bias=False)
      (upconv1): Sequential(
        (0): ConvTranspose2d(64, 32, kernel_size=(4, 4), stride=(2, 2), padding=(1, 1), bias=False)
        (1): LeakyReLU(negative_slope=0.1, inplace)
      )
      (upflow2to1): ConvTranspose2d(1, 1, kernel_size=(4, 4), stride=(2, 2), padding=(1, 1), bias=False)
      (pred_res1): Conv2d(32, 1, kernel_size=(3, 3), stride=(1, 1), padding=(1, 1), bias=False)
      (upconv0): Sequential(
        (0): ConvTranspose2d(32, 16, kernel_size=(4, 4), stride=(2, 2), padding=(1, 1), bias=False)
        (1): LeakyReLU(negative_slope=0.1, inplace)
      )
      (upflow1to0): ConvTranspose2d(1, 1, kernel_size=(4, 4), stride=(2, 2), padding=(1, 1), bias=False)
      (pred_res0): Conv2d(16, 1, kernel_size=(3, 3), stride=(1, 1), padding=(1, 1), bias=False)
      (relu): ReLU()
    )
    (relu): ReLU()
  )
)"
epoch	time_stamp	train_loss	train_EPE	EPE	lr
Namespace(augment=0, batchSize=8, beta=0.999, cuda=True, datapath='/data2/virtual3', devices='0,1,2,3', domain_transfer=0, endEpoch=200, flowDiv=1.0, logFile='girl-ir-train-dispCSRes.log', lr=0.01, manualSeed=3493, model='', momentum=0.9, outf='./models/girl-ir-dispCSRes', showFreq=1, startEpoch=0, tdlist='real_sgm_release.list', trainlist='./lists/girl_with_ir2_TRAIN.list', vallist='./lists/girl_with_ir2_TEST.list', workers=8)
"DataParallel(
  (module): DispNetCSRes(
    (dispnetc): DispNetC(
      (conv1): Sequential(
        (0): Conv2d(3, 64, kernel_size=(7, 7), stride=(2, 2), padding=(3, 3))
        (1): LeakyReLU(negative_slope=0.1, inplace)
      )
      (conv2): ResBlock(
        (conv1): Conv2d(64, 128, kernel_size=(3, 3), stride=(2, 2), padding=(1, 1))
        (bn1): BatchNorm2d(128, eps=1e-05, momentum=0.1, affine=True, track_running_stats=True)
        (relu): ReLU(inplace)
        (conv2): Conv2d(128, 128, kernel_size=(3, 3), stride=(1, 1), padding=(1, 1))
        (bn2): BatchNorm2d(128, eps=1e-05, momentum=0.1, affine=True, track_running_stats=True)
        (shortcut): Sequential(
          (0): Conv2d(64, 128, kernel_size=(1, 1), stride=(2, 2))
          (1): BatchNorm2d(128, eps=1e-05, momentum=0.1, affine=True, track_running_stats=True)
        )
      )
      (conv3): ResBlock(
        (conv1): Conv2d(128, 256, kernel_size=(3, 3), stride=(2, 2), padding=(1, 1))
        (bn1): BatchNorm2d(256, eps=1e-05, momentum=0.1, affine=True, track_running_stats=True)
        (relu): ReLU(inplace)
        (conv2): Conv2d(256, 256, kernel_size=(3, 3), stride=(1, 1), padding=(1, 1))
        (bn2): BatchNorm2d(256, eps=1e-05, momentum=0.1, affine=True, track_running_stats=True)
        (shortcut): Sequential(
          (0): Conv2d(128, 256, kernel_size=(1, 1), stride=(2, 2))
          (1): BatchNorm2d(256, eps=1e-05, momentum=0.1, affine=True, track_running_stats=True)
        )
      )
      (conv_redir): ResBlock(
        (conv1): Conv2d(256, 32, kernel_size=(3, 3), stride=(1, 1), padding=(1, 1))
        (bn1): BatchNorm2d(32, eps=1e-05, momentum=0.1, affine=True, track_running_stats=True)
        (relu): ReLU(inplace)
        (conv2): Conv2d(32, 32, kernel_size=(3, 3), stride=(1, 1), padding=(1, 1))
        (bn2): BatchNorm2d(32, eps=1e-05, momentum=0.1, affine=True, track_running_stats=True)
        (shortcut): Sequential(
          (0): Conv2d(256, 32, kernel_size=(1, 1), stride=(1, 1))
          (1): BatchNorm2d(32, eps=1e-05, momentum=0.1, affine=True, track_running_stats=True)
        )
      )
      (corr): Correlation()
      (corr_activation): LeakyReLU(negative_slope=0.1, inplace)
      (conv3_1): ResBlock(
        (conv1): Conv2d(473, 256, kernel_size=(3, 3), stride=(1, 1), padding=(1, 1))
        (bn1): BatchNorm2d(256, eps=1e-05, momentum=0.1, affine=True, track_running_stats=True)
        (relu): ReLU(inplace)
        (conv2): Conv2d(256, 256, kernel_size=(3, 3), stride=(1, 1), padding=(1, 1))
        (bn2): BatchNorm2d(256, eps=1e-05, momentum=0.1, affine=True, track_running_stats=True)
        (shortcut): Sequential(
          (0): Conv2d(473, 256, kernel_size=(1, 1), stride=(1, 1))
          (1): BatchNorm2d(256, eps=1e-05, momentum=0.1, affine=True, track_running_stats=True)
        )
      )
      (conv4): ResBlock(
        (conv1): Conv2d(256, 512, kernel_size=(3, 3), stride=(2, 2), padding=(1, 1))
        (bn1): BatchNorm2d(512, eps=1e-05, momentum=0.1, affine=True, track_running_stats=True)
        (relu): ReLU(inplace)
        (conv2): Conv2d(512, 512, kernel_size=(3, 3), stride=(1, 1), padding=(1, 1))
        (bn2): BatchNorm2d(512, eps=1e-05, momentum=0.1, affine=True, track_running_stats=True)
        (shortcut): Sequential(
          (0): Conv2d(256, 512, kernel_size=(1, 1), stride=(2, 2))
          (1): BatchNorm2d(512, eps=1e-05, momentum=0.1, affine=True, track_running_stats=True)
        )
      )
      (conv4_1): ResBlock(
        (conv1): Conv2d(512, 512, kernel_size=(3, 3), stride=(1, 1), padding=(1, 1))
        (bn1): BatchNorm2d(512, eps=1e-05, momentum=0.1, affine=True, track_running_stats=True)
        (relu): ReLU(inplace)
        (conv2): Conv2d(512, 512, kernel_size=(3, 3), stride=(1, 1), padding=(1, 1))
        (bn2): BatchNorm2d(512, eps=1e-05, momentum=0.1, affine=True, track_running_stats=True)
      )
      (conv5): ResBlock(
        (conv1): Conv2d(512, 512, kernel_size=(3, 3), stride=(2, 2), padding=(1, 1))
        (bn1): BatchNorm2d(512, eps=1e-05, momentum=0.1, affine=True, track_running_stats=True)
        (relu): ReLU(inplace)
        (conv2): Conv2d(512, 512, kernel_size=(3, 3), stride=(1, 1), padding=(1, 1))
        (bn2): BatchNorm2d(512, eps=1e-05, momentum=0.1, affine=True, track_running_stats=True)
        (shortcut): Sequential(
          (0): Conv2d(512, 512, kernel_size=(1, 1), stride=(2, 2))
          (1): BatchNorm2d(512, eps=1e-05, momentum=0.1, affine=True, track_running_stats=True)
        )
      )
      (conv5_1): ResBlock(
        (conv1): Conv2d(512, 512, kernel_size=(3, 3), stride=(1, 1), padding=(1, 1))
        (bn1): BatchNorm2d(512, eps=1e-05, momentum=0.1, affine=True, track_running_stats=True)
        (relu): ReLU(inplace)
        (conv2): Conv2d(512, 512, kernel_size=(3, 3), stride=(1, 1), padding=(1, 1))
        (bn2): BatchNorm2d(512, eps=1e-05, momentum=0.1, affine=True, track_running_stats=True)
      )
      (conv6): ResBlock(
        (conv1): Conv2d(512, 1024, kernel_size=(3, 3), stride=(2, 2), padding=(1, 1))
        (bn1): BatchNorm2d(1024, eps=1e-05, momentum=0.1, affine=True, track_running_stats=True)
        (relu): ReLU(inplace)
        (conv2): Conv2d(1024, 1024, kernel_size=(3, 3), stride=(1, 1), padding=(1, 1))
        (bn2): BatchNorm2d(1024, eps=1e-05, momentum=0.1, affine=True, track_running_stats=True)
        (shortcut): Sequential(
          (0): Conv2d(512, 1024, kernel_size=(1, 1), stride=(2, 2))
          (1): BatchNorm2d(1024, eps=1e-05, momentum=0.1, affine=True, track_running_stats=True)
        )
      )
      (conv6_1): ResBlock(
        (conv1): Conv2d(1024, 1024, kernel_size=(3, 3), stride=(1, 1), padding=(1, 1))
        (bn1): BatchNorm2d(1024, eps=1e-05, momentum=0.1, affine=True, track_running_stats=True)
        (relu): ReLU(inplace)
        (conv2): Conv2d(1024, 1024, kernel_size=(3, 3), stride=(1, 1), padding=(1, 1))
        (bn2): BatchNorm2d(1024, eps=1e-05, momentum=0.1, affine=True, track_running_stats=True)
      )
      (pred_flow6): Conv2d(1024, 1, kernel_size=(3, 3), stride=(1, 1), padding=(1, 1), bias=False)
      (iconv5): ConvTranspose2d(1025, 512, kernel_size=(3, 3), stride=(1, 1), padding=(1, 1))
      (iconv4): ConvTranspose2d(769, 256, kernel_size=(3, 3), stride=(1, 1), padding=(1, 1))
      (iconv3): ConvTranspose2d(385, 128, kernel_size=(3, 3), stride=(1, 1), padding=(1, 1))
      (iconv2): ConvTranspose2d(193, 64, kernel_size=(3, 3), stride=(1, 1), padding=(1, 1))
      (iconv1): ConvTranspose2d(97, 32, kernel_size=(3, 3), stride=(1, 1), padding=(1, 1))
      (iconv0): ConvTranspose2d(20, 16, kernel_size=(3, 3), stride=(1, 1), padding=(1, 1))
      (upconv5): Sequential(
        (0): ConvTranspose2d(1024, 512, kernel_size=(4, 4), stride=(2, 2), padding=(1, 1), bias=False)
        (1): LeakyReLU(negative_slope=0.1, inplace)
      )
      (upflow6to5): ConvTranspose2d(1, 1, kernel_size=(4, 4), stride=(2, 2), padding=(1, 1), bias=False)
      (pred_flow5): Conv2d(512, 1, kernel_size=(3, 3), stride=(1, 1), padding=(1, 1), bias=False)
      (upconv4): Sequential(
        (0): ConvTranspose2d(512, 256, kernel_size=(4, 4), stride=(2, 2), padding=(1, 1), bias=False)
        (1): LeakyReLU(negative_slope=0.1, inplace)
      )
      (upflow5to4): ConvTranspose2d(1, 1, kernel_size=(4, 4), stride=(2, 2), padding=(1, 1), bias=False)
      (pred_flow4): Conv2d(256, 1, kernel_size=(3, 3), stride=(1, 1), padding=(1, 1), bias=False)
      (upconv3): Sequential(
        (0): ConvTranspose2d(256, 128, kernel_size=(4, 4), stride=(2, 2), padding=(1, 1), bias=False)
        (1): LeakyReLU(negative_slope=0.1, inplace)
      )
      (upflow4to3): ConvTranspose2d(1, 1, kernel_size=(4, 4), stride=(2, 2), padding=(1, 1), bias=False)
      (pred_flow3): Conv2d(128, 1, kernel_size=(3, 3), stride=(1, 1), padding=(1, 1), bias=False)
      (upconv2): Sequential(
        (0): ConvTranspose2d(128, 64, kernel_size=(4, 4), stride=(2, 2), padding=(1, 1), bias=False)
        (1): LeakyReLU(negative_slope=0.1, inplace)
      )
      (upflow3to2): ConvTranspose2d(1, 1, kernel_size=(4, 4), stride=(2, 2), padding=(1, 1), bias=False)
      (pred_flow2): Conv2d(64, 1, kernel_size=(3, 3), stride=(1, 1), padding=(1, 1), bias=False)
      (upconv1): Sequential(
        (0): ConvTranspose2d(64, 32, kernel_size=(4, 4), stride=(2, 2), padding=(1, 1), bias=False)
        (1): LeakyReLU(negative_slope=0.1, inplace)
      )
      (upflow2to1): ConvTranspose2d(1, 1, kernel_size=(4, 4), stride=(2, 2), padding=(1, 1), bias=False)
      (pred_flow1): Conv2d(32, 1, kernel_size=(3, 3), stride=(1, 1), padding=(1, 1), bias=False)
      (upconv0): Sequential(
        (0): ConvTranspose2d(32, 16, kernel_size=(4, 4), stride=(2, 2), padding=(1, 1), bias=False)
        (1): LeakyReLU(negative_slope=0.1, inplace)
      )
      (upflow1to0): ConvTranspose2d(1, 1, kernel_size=(4, 4), stride=(2, 2), padding=(1, 1), bias=False)
      (pred_flow0): Conv2d(16, 1, kernel_size=(3, 3), stride=(1, 1), padding=(1, 1), bias=False)
    )
    (channelnorm): ChannelNorm()
    (resample1): Resample2d()
    (dispnetres): DispNetRes(
      (conv1): Sequential(
        (0): Conv2d(11, 64, kernel_size=(7, 7), stride=(2, 2), padding=(3, 3))
        (1): LeakyReLU(negative_slope=0.1, inplace)
      )
      (conv2): ResBlock(
        (conv1): Conv2d(64, 128, kernel_size=(3, 3), stride=(2, 2), padding=(1, 1))
        (bn1): BatchNorm2d(128, eps=1e-05, momentum=0.1, affine=True, track_running_stats=True)
        (relu): ReLU(inplace)
        (conv2): Conv2d(128, 128, kernel_size=(3, 3), stride=(1, 1), padding=(1, 1))
        (bn2): BatchNorm2d(128, eps=1e-05, momentum=0.1, affine=True, track_running_stats=True)
        (shortcut): Sequential(
          (0): Conv2d(64, 128, kernel_size=(1, 1), stride=(2, 2))
          (1): BatchNorm2d(128, eps=1e-05, momentum=0.1, affine=True, track_running_stats=True)
        )
      )
      (conv3): ResBlock(
        (conv1): Conv2d(128, 256, kernel_size=(3, 3), stride=(2, 2), padding=(1, 1))
        (bn1): BatchNorm2d(256, eps=1e-05, momentum=0.1, affine=True, track_running_stats=True)
        (relu): ReLU(inplace)
        (conv2): Conv2d(256, 256, kernel_size=(3, 3), stride=(1, 1), padding=(1, 1))
        (bn2): BatchNorm2d(256, eps=1e-05, momentum=0.1, affine=True, track_running_stats=True)
        (shortcut): Sequential(
          (0): Conv2d(128, 256, kernel_size=(1, 1), stride=(2, 2))
          (1): BatchNorm2d(256, eps=1e-05, momentum=0.1, affine=True, track_running_stats=True)
        )
      )
      (conv3_1): ResBlock(
        (conv1): Conv2d(256, 256, kernel_size=(3, 3), stride=(1, 1), padding=(1, 1))
        (bn1): BatchNorm2d(256, eps=1e-05, momentum=0.1, affine=True, track_running_stats=True)
        (relu): ReLU(inplace)
        (conv2): Conv2d(256, 256, kernel_size=(3, 3), stride=(1, 1), padding=(1, 1))
        (bn2): BatchNorm2d(256, eps=1e-05, momentum=0.1, affine=True, track_running_stats=True)
      )
      (conv4): ResBlock(
        (conv1): Conv2d(256, 512, kernel_size=(3, 3), stride=(2, 2), padding=(1, 1))
        (bn1): BatchNorm2d(512, eps=1e-05, momentum=0.1, affine=True, track_running_stats=True)
        (relu): ReLU(inplace)
        (conv2): Conv2d(512, 512, kernel_size=(3, 3), stride=(1, 1), padding=(1, 1))
        (bn2): BatchNorm2d(512, eps=1e-05, momentum=0.1, affine=True, track_running_stats=True)
        (shortcut): Sequential(
          (0): Conv2d(256, 512, kernel_size=(1, 1), stride=(2, 2))
          (1): BatchNorm2d(512, eps=1e-05, momentum=0.1, affine=True, track_running_stats=True)
        )
      )
      (conv4_1): ResBlock(
        (conv1): Conv2d(512, 512, kernel_size=(3, 3), stride=(1, 1), padding=(1, 1))
        (bn1): BatchNorm2d(512, eps=1e-05, momentum=0.1, affine=True, track_running_stats=True)
        (relu): ReLU(inplace)
        (conv2): Conv2d(512, 512, kernel_size=(3, 3), stride=(1, 1), padding=(1, 1))
        (bn2): BatchNorm2d(512, eps=1e-05, momentum=0.1, affine=True, track_running_stats=True)
      )
      (conv5): ResBlock(
        (conv1): Conv2d(512, 512, kernel_size=(3, 3), stride=(2, 2), padding=(1, 1))
        (bn1): BatchNorm2d(512, eps=1e-05, momentum=0.1, affine=True, track_running_stats=True)
        (relu): ReLU(inplace)
        (conv2): Conv2d(512, 512, kernel_size=(3, 3), stride=(1, 1), padding=(1, 1))
        (bn2): BatchNorm2d(512, eps=1e-05, momentum=0.1, affine=True, track_running_stats=True)
        (shortcut): Sequential(
          (0): Conv2d(512, 512, kernel_size=(1, 1), stride=(2, 2))
          (1): BatchNorm2d(512, eps=1e-05, momentum=0.1, affine=True, track_running_stats=True)
        )
      )
      (conv5_1): ResBlock(
        (conv1): Conv2d(512, 512, kernel_size=(3, 3), stride=(1, 1), padding=(1, 1))
        (bn1): BatchNorm2d(512, eps=1e-05, momentum=0.1, affine=True, track_running_stats=True)
        (relu): ReLU(inplace)
        (conv2): Conv2d(512, 512, kernel_size=(3, 3), stride=(1, 1), padding=(1, 1))
        (bn2): BatchNorm2d(512, eps=1e-05, momentum=0.1, affine=True, track_running_stats=True)
      )
      (conv6): ResBlock(
        (conv1): Conv2d(512, 1024, kernel_size=(3, 3), stride=(2, 2), padding=(1, 1))
        (bn1): BatchNorm2d(1024, eps=1e-05, momentum=0.1, affine=True, track_running_stats=True)
        (relu): ReLU(inplace)
        (conv2): Conv2d(1024, 1024, kernel_size=(3, 3), stride=(1, 1), padding=(1, 1))
        (bn2): BatchNorm2d(1024, eps=1e-05, momentum=0.1, affine=True, track_running_stats=True)
        (shortcut): Sequential(
          (0): Conv2d(512, 1024, kernel_size=(1, 1), stride=(2, 2))
          (1): BatchNorm2d(1024, eps=1e-05, momentum=0.1, affine=True, track_running_stats=True)
        )
      )
      (conv6_1): ResBlock(
        (conv1): Conv2d(1024, 1024, kernel_size=(3, 3), stride=(1, 1), padding=(1, 1))
        (bn1): BatchNorm2d(1024, eps=1e-05, momentum=0.1, affine=True, track_running_stats=True)
        (relu): ReLU(inplace)
        (conv2): Conv2d(1024, 1024, kernel_size=(3, 3), stride=(1, 1), padding=(1, 1))
        (bn2): BatchNorm2d(1024, eps=1e-05, momentum=0.1, affine=True, track_running_stats=True)
      )
      (pred_res6): Conv2d(1024, 1, kernel_size=(3, 3), stride=(1, 1), padding=(1, 1), bias=False)
      (iconv5): ConvTranspose2d(1025, 512, kernel_size=(3, 3), stride=(1, 1), padding=(1, 1))
      (iconv4): ConvTranspose2d(769, 256, kernel_size=(3, 3), stride=(1, 1), padding=(1, 1))
      (iconv3): ConvTranspose2d(385, 128, kernel_size=(3, 3), stride=(1, 1), padding=(1, 1))
      (iconv2): ConvTranspose2d(193, 64, kernel_size=(3, 3), stride=(1, 1), padding=(1, 1))
      (iconv1): ConvTranspose2d(97, 32, kernel_size=(3, 3), stride=(1, 1), padding=(1, 1))
      (iconv0): ConvTranspose2d(20, 16, kernel_size=(3, 3), stride=(1, 1), padding=(1, 1))
      (upconv5): Sequential(
        (0): ConvTranspose2d(1024, 512, kernel_size=(4, 4), stride=(2, 2), padding=(1, 1), bias=False)
        (1): LeakyReLU(negative_slope=0.1, inplace)
      )
      (upflow6to5): ConvTranspose2d(1, 1, kernel_size=(4, 4), stride=(2, 2), padding=(1, 1), bias=False)
      (pred_res5): Conv2d(512, 1, kernel_size=(3, 3), stride=(1, 1), padding=(1, 1), bias=False)
      (upconv4): Sequential(
        (0): ConvTranspose2d(512, 256, kernel_size=(4, 4), stride=(2, 2), padding=(1, 1), bias=False)
        (1): LeakyReLU(negative_slope=0.1, inplace)
      )
      (upflow5to4): ConvTranspose2d(1, 1, kernel_size=(4, 4), stride=(2, 2), padding=(1, 1), bias=False)
      (pred_res4): Conv2d(256, 1, kernel_size=(3, 3), stride=(1, 1), padding=(1, 1), bias=False)
      (upconv3): Sequential(
        (0): ConvTranspose2d(256, 128, kernel_size=(4, 4), stride=(2, 2), padding=(1, 1), bias=False)
        (1): LeakyReLU(negative_slope=0.1, inplace)
      )
      (upflow4to3): ConvTranspose2d(1, 1, kernel_size=(4, 4), stride=(2, 2), padding=(1, 1), bias=False)
      (pred_res3): Conv2d(128, 1, kernel_size=(3, 3), stride=(1, 1), padding=(1, 1), bias=False)
      (upconv2): Sequential(
        (0): ConvTranspose2d(128, 64, kernel_size=(4, 4), stride=(2, 2), padding=(1, 1), bias=False)
        (1): LeakyReLU(negative_slope=0.1, inplace)
      )
      (upflow3to2): ConvTranspose2d(1, 1, kernel_size=(4, 4), stride=(2, 2), padding=(1, 1), bias=False)
      (pred_res2): Conv2d(64, 1, kernel_size=(3, 3), stride=(1, 1), padding=(1, 1), bias=False)
      (upconv1): Sequential(
        (0): ConvTranspose2d(64, 32, kernel_size=(4, 4), stride=(2, 2), padding=(1, 1), bias=False)
        (1): LeakyReLU(negative_slope=0.1, inplace)
      )
      (upflow2to1): ConvTranspose2d(1, 1, kernel_size=(4, 4), stride=(2, 2), padding=(1, 1), bias=False)
      (pred_res1): Conv2d(32, 1, kernel_size=(3, 3), stride=(1, 1), padding=(1, 1), bias=False)
      (upconv0): Sequential(
        (0): ConvTranspose2d(32, 16, kernel_size=(4, 4), stride=(2, 2), padding=(1, 1), bias=False)
        (1): LeakyReLU(negative_slope=0.1, inplace)
      )
      (upflow1to0): ConvTranspose2d(1, 1, kernel_size=(4, 4), stride=(2, 2), padding=(1, 1), bias=False)
      (pred_res0): Conv2d(16, 1, kernel_size=(3, 3), stride=(1, 1), padding=(1, 1), bias=False)
      (relu): ReLU()
    )
    (relu): ReLU()
  )
)"
epoch	time_stamp	train_loss	train_EPE	EPE	lr
Namespace(augment=0, batchSize=8, beta=0.999, cuda=True, datapath='/data2/virtual3', devices='0,1,2,3', domain_transfer=0, endEpoch=200, flowDiv=1.0, logFile='girl-ir-train-dispCSRes.log', lr=0.01, manualSeed=5981, model='', momentum=0.9, outf='./models/girl-ir-dispCSRes', showFreq=1, startEpoch=0, tdlist='real_sgm_release.list', trainlist='./lists/girl_with_ir2_TRAIN.list', vallist='./lists/girl_with_ir2_TEST.list', workers=8)
"DataParallel(
  (module): DispNetCSRes(
    (dispnetc): DispNetC(
      (conv1): Sequential(
        (0): Conv2d(3, 64, kernel_size=(7, 7), stride=(2, 2), padding=(3, 3))
        (1): LeakyReLU(negative_slope=0.1, inplace)
      )
      (conv2): ResBlock(
        (conv1): Conv2d(64, 128, kernel_size=(3, 3), stride=(2, 2), padding=(1, 1))
        (bn1): BatchNorm2d(128, eps=1e-05, momentum=0.1, affine=True, track_running_stats=True)
        (relu): ReLU(inplace)
        (conv2): Conv2d(128, 128, kernel_size=(3, 3), stride=(1, 1), padding=(1, 1))
        (bn2): BatchNorm2d(128, eps=1e-05, momentum=0.1, affine=True, track_running_stats=True)
        (shortcut): Sequential(
          (0): Conv2d(64, 128, kernel_size=(1, 1), stride=(2, 2))
          (1): BatchNorm2d(128, eps=1e-05, momentum=0.1, affine=True, track_running_stats=True)
        )
      )
      (conv3): ResBlock(
        (conv1): Conv2d(128, 256, kernel_size=(3, 3), stride=(2, 2), padding=(1, 1))
        (bn1): BatchNorm2d(256, eps=1e-05, momentum=0.1, affine=True, track_running_stats=True)
        (relu): ReLU(inplace)
        (conv2): Conv2d(256, 256, kernel_size=(3, 3), stride=(1, 1), padding=(1, 1))
        (bn2): BatchNorm2d(256, eps=1e-05, momentum=0.1, affine=True, track_running_stats=True)
        (shortcut): Sequential(
          (0): Conv2d(128, 256, kernel_size=(1, 1), stride=(2, 2))
          (1): BatchNorm2d(256, eps=1e-05, momentum=0.1, affine=True, track_running_stats=True)
        )
      )
      (conv_redir): ResBlock(
        (conv1): Conv2d(256, 32, kernel_size=(3, 3), stride=(1, 1), padding=(1, 1))
        (bn1): BatchNorm2d(32, eps=1e-05, momentum=0.1, affine=True, track_running_stats=True)
        (relu): ReLU(inplace)
        (conv2): Conv2d(32, 32, kernel_size=(3, 3), stride=(1, 1), padding=(1, 1))
        (bn2): BatchNorm2d(32, eps=1e-05, momentum=0.1, affine=True, track_running_stats=True)
        (shortcut): Sequential(
          (0): Conv2d(256, 32, kernel_size=(1, 1), stride=(1, 1))
          (1): BatchNorm2d(32, eps=1e-05, momentum=0.1, affine=True, track_running_stats=True)
        )
      )
      (corr): Correlation()
      (corr_activation): LeakyReLU(negative_slope=0.1, inplace)
      (conv3_1): ResBlock(
        (conv1): Conv2d(473, 256, kernel_size=(3, 3), stride=(1, 1), padding=(1, 1))
        (bn1): BatchNorm2d(256, eps=1e-05, momentum=0.1, affine=True, track_running_stats=True)
        (relu): ReLU(inplace)
        (conv2): Conv2d(256, 256, kernel_size=(3, 3), stride=(1, 1), padding=(1, 1))
        (bn2): BatchNorm2d(256, eps=1e-05, momentum=0.1, affine=True, track_running_stats=True)
        (shortcut): Sequential(
          (0): Conv2d(473, 256, kernel_size=(1, 1), stride=(1, 1))
          (1): BatchNorm2d(256, eps=1e-05, momentum=0.1, affine=True, track_running_stats=True)
        )
      )
      (conv4): ResBlock(
        (conv1): Conv2d(256, 512, kernel_size=(3, 3), stride=(2, 2), padding=(1, 1))
        (bn1): BatchNorm2d(512, eps=1e-05, momentum=0.1, affine=True, track_running_stats=True)
        (relu): ReLU(inplace)
        (conv2): Conv2d(512, 512, kernel_size=(3, 3), stride=(1, 1), padding=(1, 1))
        (bn2): BatchNorm2d(512, eps=1e-05, momentum=0.1, affine=True, track_running_stats=True)
        (shortcut): Sequential(
          (0): Conv2d(256, 512, kernel_size=(1, 1), stride=(2, 2))
          (1): BatchNorm2d(512, eps=1e-05, momentum=0.1, affine=True, track_running_stats=True)
        )
      )
      (conv4_1): ResBlock(
        (conv1): Conv2d(512, 512, kernel_size=(3, 3), stride=(1, 1), padding=(1, 1))
        (bn1): BatchNorm2d(512, eps=1e-05, momentum=0.1, affine=True, track_running_stats=True)
        (relu): ReLU(inplace)
        (conv2): Conv2d(512, 512, kernel_size=(3, 3), stride=(1, 1), padding=(1, 1))
        (bn2): BatchNorm2d(512, eps=1e-05, momentum=0.1, affine=True, track_running_stats=True)
      )
      (conv5): ResBlock(
        (conv1): Conv2d(512, 512, kernel_size=(3, 3), stride=(2, 2), padding=(1, 1))
        (bn1): BatchNorm2d(512, eps=1e-05, momentum=0.1, affine=True, track_running_stats=True)
        (relu): ReLU(inplace)
        (conv2): Conv2d(512, 512, kernel_size=(3, 3), stride=(1, 1), padding=(1, 1))
        (bn2): BatchNorm2d(512, eps=1e-05, momentum=0.1, affine=True, track_running_stats=True)
        (shortcut): Sequential(
          (0): Conv2d(512, 512, kernel_size=(1, 1), stride=(2, 2))
          (1): BatchNorm2d(512, eps=1e-05, momentum=0.1, affine=True, track_running_stats=True)
        )
      )
      (conv5_1): ResBlock(
        (conv1): Conv2d(512, 512, kernel_size=(3, 3), stride=(1, 1), padding=(1, 1))
        (bn1): BatchNorm2d(512, eps=1e-05, momentum=0.1, affine=True, track_running_stats=True)
        (relu): ReLU(inplace)
        (conv2): Conv2d(512, 512, kernel_size=(3, 3), stride=(1, 1), padding=(1, 1))
        (bn2): BatchNorm2d(512, eps=1e-05, momentum=0.1, affine=True, track_running_stats=True)
      )
      (conv6): ResBlock(
        (conv1): Conv2d(512, 1024, kernel_size=(3, 3), stride=(2, 2), padding=(1, 1))
        (bn1): BatchNorm2d(1024, eps=1e-05, momentum=0.1, affine=True, track_running_stats=True)
        (relu): ReLU(inplace)
        (conv2): Conv2d(1024, 1024, kernel_size=(3, 3), stride=(1, 1), padding=(1, 1))
        (bn2): BatchNorm2d(1024, eps=1e-05, momentum=0.1, affine=True, track_running_stats=True)
        (shortcut): Sequential(
          (0): Conv2d(512, 1024, kernel_size=(1, 1), stride=(2, 2))
          (1): BatchNorm2d(1024, eps=1e-05, momentum=0.1, affine=True, track_running_stats=True)
        )
      )
      (conv6_1): ResBlock(
        (conv1): Conv2d(1024, 1024, kernel_size=(3, 3), stride=(1, 1), padding=(1, 1))
        (bn1): BatchNorm2d(1024, eps=1e-05, momentum=0.1, affine=True, track_running_stats=True)
        (relu): ReLU(inplace)
        (conv2): Conv2d(1024, 1024, kernel_size=(3, 3), stride=(1, 1), padding=(1, 1))
        (bn2): BatchNorm2d(1024, eps=1e-05, momentum=0.1, affine=True, track_running_stats=True)
      )
      (pred_flow6): Conv2d(1024, 1, kernel_size=(3, 3), stride=(1, 1), padding=(1, 1), bias=False)
      (iconv5): ConvTranspose2d(1025, 512, kernel_size=(3, 3), stride=(1, 1), padding=(1, 1))
      (iconv4): ConvTranspose2d(769, 256, kernel_size=(3, 3), stride=(1, 1), padding=(1, 1))
      (iconv3): ConvTranspose2d(385, 128, kernel_size=(3, 3), stride=(1, 1), padding=(1, 1))
      (iconv2): ConvTranspose2d(193, 64, kernel_size=(3, 3), stride=(1, 1), padding=(1, 1))
      (iconv1): ConvTranspose2d(97, 32, kernel_size=(3, 3), stride=(1, 1), padding=(1, 1))
      (iconv0): ConvTranspose2d(20, 16, kernel_size=(3, 3), stride=(1, 1), padding=(1, 1))
      (upconv5): Sequential(
        (0): ConvTranspose2d(1024, 512, kernel_size=(4, 4), stride=(2, 2), padding=(1, 1), bias=False)
        (1): LeakyReLU(negative_slope=0.1, inplace)
      )
      (upflow6to5): ConvTranspose2d(1, 1, kernel_size=(4, 4), stride=(2, 2), padding=(1, 1), bias=False)
      (pred_flow5): Conv2d(512, 1, kernel_size=(3, 3), stride=(1, 1), padding=(1, 1), bias=False)
      (upconv4): Sequential(
        (0): ConvTranspose2d(512, 256, kernel_size=(4, 4), stride=(2, 2), padding=(1, 1), bias=False)
        (1): LeakyReLU(negative_slope=0.1, inplace)
      )
      (upflow5to4): ConvTranspose2d(1, 1, kernel_size=(4, 4), stride=(2, 2), padding=(1, 1), bias=False)
      (pred_flow4): Conv2d(256, 1, kernel_size=(3, 3), stride=(1, 1), padding=(1, 1), bias=False)
      (upconv3): Sequential(
        (0): ConvTranspose2d(256, 128, kernel_size=(4, 4), stride=(2, 2), padding=(1, 1), bias=False)
        (1): LeakyReLU(negative_slope=0.1, inplace)
      )
      (upflow4to3): ConvTranspose2d(1, 1, kernel_size=(4, 4), stride=(2, 2), padding=(1, 1), bias=False)
      (pred_flow3): Conv2d(128, 1, kernel_size=(3, 3), stride=(1, 1), padding=(1, 1), bias=False)
      (upconv2): Sequential(
        (0): ConvTranspose2d(128, 64, kernel_size=(4, 4), stride=(2, 2), padding=(1, 1), bias=False)
        (1): LeakyReLU(negative_slope=0.1, inplace)
      )
      (upflow3to2): ConvTranspose2d(1, 1, kernel_size=(4, 4), stride=(2, 2), padding=(1, 1), bias=False)
      (pred_flow2): Conv2d(64, 1, kernel_size=(3, 3), stride=(1, 1), padding=(1, 1), bias=False)
      (upconv1): Sequential(
        (0): ConvTranspose2d(64, 32, kernel_size=(4, 4), stride=(2, 2), padding=(1, 1), bias=False)
        (1): LeakyReLU(negative_slope=0.1, inplace)
      )
      (upflow2to1): ConvTranspose2d(1, 1, kernel_size=(4, 4), stride=(2, 2), padding=(1, 1), bias=False)
      (pred_flow1): Conv2d(32, 1, kernel_size=(3, 3), stride=(1, 1), padding=(1, 1), bias=False)
      (upconv0): Sequential(
        (0): ConvTranspose2d(32, 16, kernel_size=(4, 4), stride=(2, 2), padding=(1, 1), bias=False)
        (1): LeakyReLU(negative_slope=0.1, inplace)
      )
      (upflow1to0): ConvTranspose2d(1, 1, kernel_size=(4, 4), stride=(2, 2), padding=(1, 1), bias=False)
      (pred_flow0): Conv2d(16, 1, kernel_size=(3, 3), stride=(1, 1), padding=(1, 1), bias=False)
    )
    (channelnorm): ChannelNorm()
    (resample1): Resample2d()
    (dispnetres): DispNetRes(
      (conv1): Sequential(
        (0): Conv2d(11, 64, kernel_size=(7, 7), stride=(2, 2), padding=(3, 3))
        (1): LeakyReLU(negative_slope=0.1, inplace)
      )
      (conv2): ResBlock(
        (conv1): Conv2d(64, 128, kernel_size=(3, 3), stride=(2, 2), padding=(1, 1))
        (bn1): BatchNorm2d(128, eps=1e-05, momentum=0.1, affine=True, track_running_stats=True)
        (relu): ReLU(inplace)
        (conv2): Conv2d(128, 128, kernel_size=(3, 3), stride=(1, 1), padding=(1, 1))
        (bn2): BatchNorm2d(128, eps=1e-05, momentum=0.1, affine=True, track_running_stats=True)
        (shortcut): Sequential(
          (0): Conv2d(64, 128, kernel_size=(1, 1), stride=(2, 2))
          (1): BatchNorm2d(128, eps=1e-05, momentum=0.1, affine=True, track_running_stats=True)
        )
      )
      (conv3): ResBlock(
        (conv1): Conv2d(128, 256, kernel_size=(3, 3), stride=(2, 2), padding=(1, 1))
        (bn1): BatchNorm2d(256, eps=1e-05, momentum=0.1, affine=True, track_running_stats=True)
        (relu): ReLU(inplace)
        (conv2): Conv2d(256, 256, kernel_size=(3, 3), stride=(1, 1), padding=(1, 1))
        (bn2): BatchNorm2d(256, eps=1e-05, momentum=0.1, affine=True, track_running_stats=True)
        (shortcut): Sequential(
          (0): Conv2d(128, 256, kernel_size=(1, 1), stride=(2, 2))
          (1): BatchNorm2d(256, eps=1e-05, momentum=0.1, affine=True, track_running_stats=True)
        )
      )
      (conv3_1): ResBlock(
        (conv1): Conv2d(256, 256, kernel_size=(3, 3), stride=(1, 1), padding=(1, 1))
        (bn1): BatchNorm2d(256, eps=1e-05, momentum=0.1, affine=True, track_running_stats=True)
        (relu): ReLU(inplace)
        (conv2): Conv2d(256, 256, kernel_size=(3, 3), stride=(1, 1), padding=(1, 1))
        (bn2): BatchNorm2d(256, eps=1e-05, momentum=0.1, affine=True, track_running_stats=True)
      )
      (conv4): ResBlock(
        (conv1): Conv2d(256, 512, kernel_size=(3, 3), stride=(2, 2), padding=(1, 1))
        (bn1): BatchNorm2d(512, eps=1e-05, momentum=0.1, affine=True, track_running_stats=True)
        (relu): ReLU(inplace)
        (conv2): Conv2d(512, 512, kernel_size=(3, 3), stride=(1, 1), padding=(1, 1))
        (bn2): BatchNorm2d(512, eps=1e-05, momentum=0.1, affine=True, track_running_stats=True)
        (shortcut): Sequential(
          (0): Conv2d(256, 512, kernel_size=(1, 1), stride=(2, 2))
          (1): BatchNorm2d(512, eps=1e-05, momentum=0.1, affine=True, track_running_stats=True)
        )
      )
      (conv4_1): ResBlock(
        (conv1): Conv2d(512, 512, kernel_size=(3, 3), stride=(1, 1), padding=(1, 1))
        (bn1): BatchNorm2d(512, eps=1e-05, momentum=0.1, affine=True, track_running_stats=True)
        (relu): ReLU(inplace)
        (conv2): Conv2d(512, 512, kernel_size=(3, 3), stride=(1, 1), padding=(1, 1))
        (bn2): BatchNorm2d(512, eps=1e-05, momentum=0.1, affine=True, track_running_stats=True)
      )
      (conv5): ResBlock(
        (conv1): Conv2d(512, 512, kernel_size=(3, 3), stride=(2, 2), padding=(1, 1))
        (bn1): BatchNorm2d(512, eps=1e-05, momentum=0.1, affine=True, track_running_stats=True)
        (relu): ReLU(inplace)
        (conv2): Conv2d(512, 512, kernel_size=(3, 3), stride=(1, 1), padding=(1, 1))
        (bn2): BatchNorm2d(512, eps=1e-05, momentum=0.1, affine=True, track_running_stats=True)
        (shortcut): Sequential(
          (0): Conv2d(512, 512, kernel_size=(1, 1), stride=(2, 2))
          (1): BatchNorm2d(512, eps=1e-05, momentum=0.1, affine=True, track_running_stats=True)
        )
      )
      (conv5_1): ResBlock(
        (conv1): Conv2d(512, 512, kernel_size=(3, 3), stride=(1, 1), padding=(1, 1))
        (bn1): BatchNorm2d(512, eps=1e-05, momentum=0.1, affine=True, track_running_stats=True)
        (relu): ReLU(inplace)
        (conv2): Conv2d(512, 512, kernel_size=(3, 3), stride=(1, 1), padding=(1, 1))
        (bn2): BatchNorm2d(512, eps=1e-05, momentum=0.1, affine=True, track_running_stats=True)
      )
      (conv6): ResBlock(
        (conv1): Conv2d(512, 1024, kernel_size=(3, 3), stride=(2, 2), padding=(1, 1))
        (bn1): BatchNorm2d(1024, eps=1e-05, momentum=0.1, affine=True, track_running_stats=True)
        (relu): ReLU(inplace)
        (conv2): Conv2d(1024, 1024, kernel_size=(3, 3), stride=(1, 1), padding=(1, 1))
        (bn2): BatchNorm2d(1024, eps=1e-05, momentum=0.1, affine=True, track_running_stats=True)
        (shortcut): Sequential(
          (0): Conv2d(512, 1024, kernel_size=(1, 1), stride=(2, 2))
          (1): BatchNorm2d(1024, eps=1e-05, momentum=0.1, affine=True, track_running_stats=True)
        )
      )
      (conv6_1): ResBlock(
        (conv1): Conv2d(1024, 1024, kernel_size=(3, 3), stride=(1, 1), padding=(1, 1))
        (bn1): BatchNorm2d(1024, eps=1e-05, momentum=0.1, affine=True, track_running_stats=True)
        (relu): ReLU(inplace)
        (conv2): Conv2d(1024, 1024, kernel_size=(3, 3), stride=(1, 1), padding=(1, 1))
        (bn2): BatchNorm2d(1024, eps=1e-05, momentum=0.1, affine=True, track_running_stats=True)
      )
      (pred_res6): Conv2d(1024, 1, kernel_size=(3, 3), stride=(1, 1), padding=(1, 1), bias=False)
      (iconv5): ConvTranspose2d(1025, 512, kernel_size=(3, 3), stride=(1, 1), padding=(1, 1))
      (iconv4): ConvTranspose2d(769, 256, kernel_size=(3, 3), stride=(1, 1), padding=(1, 1))
      (iconv3): ConvTranspose2d(385, 128, kernel_size=(3, 3), stride=(1, 1), padding=(1, 1))
      (iconv2): ConvTranspose2d(193, 64, kernel_size=(3, 3), stride=(1, 1), padding=(1, 1))
      (iconv1): ConvTranspose2d(97, 32, kernel_size=(3, 3), stride=(1, 1), padding=(1, 1))
      (iconv0): ConvTranspose2d(20, 16, kernel_size=(3, 3), stride=(1, 1), padding=(1, 1))
      (upconv5): Sequential(
        (0): ConvTranspose2d(1024, 512, kernel_size=(4, 4), stride=(2, 2), padding=(1, 1), bias=False)
        (1): LeakyReLU(negative_slope=0.1, inplace)
      )
      (upflow6to5): ConvTranspose2d(1, 1, kernel_size=(4, 4), stride=(2, 2), padding=(1, 1), bias=False)
      (pred_res5): Conv2d(512, 1, kernel_size=(3, 3), stride=(1, 1), padding=(1, 1), bias=False)
      (upconv4): Sequential(
        (0): ConvTranspose2d(512, 256, kernel_size=(4, 4), stride=(2, 2), padding=(1, 1), bias=False)
        (1): LeakyReLU(negative_slope=0.1, inplace)
      )
      (upflow5to4): ConvTranspose2d(1, 1, kernel_size=(4, 4), stride=(2, 2), padding=(1, 1), bias=False)
      (pred_res4): Conv2d(256, 1, kernel_size=(3, 3), stride=(1, 1), padding=(1, 1), bias=False)
      (upconv3): Sequential(
        (0): ConvTranspose2d(256, 128, kernel_size=(4, 4), stride=(2, 2), padding=(1, 1), bias=False)
        (1): LeakyReLU(negative_slope=0.1, inplace)
      )
      (upflow4to3): ConvTranspose2d(1, 1, kernel_size=(4, 4), stride=(2, 2), padding=(1, 1), bias=False)
      (pred_res3): Conv2d(128, 1, kernel_size=(3, 3), stride=(1, 1), padding=(1, 1), bias=False)
      (upconv2): Sequential(
        (0): ConvTranspose2d(128, 64, kernel_size=(4, 4), stride=(2, 2), padding=(1, 1), bias=False)
        (1): LeakyReLU(negative_slope=0.1, inplace)
      )
      (upflow3to2): ConvTranspose2d(1, 1, kernel_size=(4, 4), stride=(2, 2), padding=(1, 1), bias=False)
      (pred_res2): Conv2d(64, 1, kernel_size=(3, 3), stride=(1, 1), padding=(1, 1), bias=False)
      (upconv1): Sequential(
        (0): ConvTranspose2d(64, 32, kernel_size=(4, 4), stride=(2, 2), padding=(1, 1), bias=False)
        (1): LeakyReLU(negative_slope=0.1, inplace)
      )
      (upflow2to1): ConvTranspose2d(1, 1, kernel_size=(4, 4), stride=(2, 2), padding=(1, 1), bias=False)
      (pred_res1): Conv2d(32, 1, kernel_size=(3, 3), stride=(1, 1), padding=(1, 1), bias=False)
      (upconv0): Sequential(
        (0): ConvTranspose2d(32, 16, kernel_size=(4, 4), stride=(2, 2), padding=(1, 1), bias=False)
        (1): LeakyReLU(negative_slope=0.1, inplace)
      )
      (upflow1to0): ConvTranspose2d(1, 1, kernel_size=(4, 4), stride=(2, 2), padding=(1, 1), bias=False)
      (pred_res0): Conv2d(16, 1, kernel_size=(3, 3), stride=(1, 1), padding=(1, 1), bias=False)
      (relu): ReLU()
    )
    (relu): ReLU()
  )
)"
epoch	time_stamp	train_loss	train_EPE	EPE	lr
Namespace(augment=0, batchSize=8, beta=0.999, cuda=True, datapath='/data2/virtual3', devices='0,1,2,3', domain_transfer=0, endEpoch=200, flowDiv=1.0, logFile='girl-ir-train-dispCSRes.log', lr=0.01, manualSeed=4152, model='', momentum=0.9, outf='./models/girl-ir-dispCSRes', showFreq=1, startEpoch=0, tdlist='real_sgm_release.list', trainlist='./lists/girl_with_ir2_TRAIN.list', vallist='./lists/girl_with_ir2_TEST.list', workers=8)
"DataParallel(
  (module): DispNetCSRes(
    (dispnetc): DispNetC(
      (conv1): Sequential(
        (0): Conv2d(3, 64, kernel_size=(7, 7), stride=(2, 2), padding=(3, 3))
        (1): LeakyReLU(negative_slope=0.1, inplace)
      )
      (conv2): ResBlock(
        (conv1): Conv2d(64, 128, kernel_size=(3, 3), stride=(2, 2), padding=(1, 1))
        (bn1): BatchNorm2d(128, eps=1e-05, momentum=0.1, affine=True, track_running_stats=True)
        (relu): ReLU(inplace)
        (conv2): Conv2d(128, 128, kernel_size=(3, 3), stride=(1, 1), padding=(1, 1))
        (bn2): BatchNorm2d(128, eps=1e-05, momentum=0.1, affine=True, track_running_stats=True)
        (shortcut): Sequential(
          (0): Conv2d(64, 128, kernel_size=(1, 1), stride=(2, 2))
          (1): BatchNorm2d(128, eps=1e-05, momentum=0.1, affine=True, track_running_stats=True)
        )
      )
      (conv3): ResBlock(
        (conv1): Conv2d(128, 256, kernel_size=(3, 3), stride=(2, 2), padding=(1, 1))
        (bn1): BatchNorm2d(256, eps=1e-05, momentum=0.1, affine=True, track_running_stats=True)
        (relu): ReLU(inplace)
        (conv2): Conv2d(256, 256, kernel_size=(3, 3), stride=(1, 1), padding=(1, 1))
        (bn2): BatchNorm2d(256, eps=1e-05, momentum=0.1, affine=True, track_running_stats=True)
        (shortcut): Sequential(
          (0): Conv2d(128, 256, kernel_size=(1, 1), stride=(2, 2))
          (1): BatchNorm2d(256, eps=1e-05, momentum=0.1, affine=True, track_running_stats=True)
        )
      )
      (conv_redir): ResBlock(
        (conv1): Conv2d(256, 32, kernel_size=(3, 3), stride=(1, 1), padding=(1, 1))
        (bn1): BatchNorm2d(32, eps=1e-05, momentum=0.1, affine=True, track_running_stats=True)
        (relu): ReLU(inplace)
        (conv2): Conv2d(32, 32, kernel_size=(3, 3), stride=(1, 1), padding=(1, 1))
        (bn2): BatchNorm2d(32, eps=1e-05, momentum=0.1, affine=True, track_running_stats=True)
        (shortcut): Sequential(
          (0): Conv2d(256, 32, kernel_size=(1, 1), stride=(1, 1))
          (1): BatchNorm2d(32, eps=1e-05, momentum=0.1, affine=True, track_running_stats=True)
        )
      )
      (corr): Correlation()
      (corr_activation): LeakyReLU(negative_slope=0.1, inplace)
      (conv3_1): ResBlock(
        (conv1): Conv2d(473, 256, kernel_size=(3, 3), stride=(1, 1), padding=(1, 1))
        (bn1): BatchNorm2d(256, eps=1e-05, momentum=0.1, affine=True, track_running_stats=True)
        (relu): ReLU(inplace)
        (conv2): Conv2d(256, 256, kernel_size=(3, 3), stride=(1, 1), padding=(1, 1))
        (bn2): BatchNorm2d(256, eps=1e-05, momentum=0.1, affine=True, track_running_stats=True)
        (shortcut): Sequential(
          (0): Conv2d(473, 256, kernel_size=(1, 1), stride=(1, 1))
          (1): BatchNorm2d(256, eps=1e-05, momentum=0.1, affine=True, track_running_stats=True)
        )
      )
      (conv4): ResBlock(
        (conv1): Conv2d(256, 512, kernel_size=(3, 3), stride=(2, 2), padding=(1, 1))
        (bn1): BatchNorm2d(512, eps=1e-05, momentum=0.1, affine=True, track_running_stats=True)
        (relu): ReLU(inplace)
        (conv2): Conv2d(512, 512, kernel_size=(3, 3), stride=(1, 1), padding=(1, 1))
        (bn2): BatchNorm2d(512, eps=1e-05, momentum=0.1, affine=True, track_running_stats=True)
        (shortcut): Sequential(
          (0): Conv2d(256, 512, kernel_size=(1, 1), stride=(2, 2))
          (1): BatchNorm2d(512, eps=1e-05, momentum=0.1, affine=True, track_running_stats=True)
        )
      )
      (conv4_1): ResBlock(
        (conv1): Conv2d(512, 512, kernel_size=(3, 3), stride=(1, 1), padding=(1, 1))
        (bn1): BatchNorm2d(512, eps=1e-05, momentum=0.1, affine=True, track_running_stats=True)
        (relu): ReLU(inplace)
        (conv2): Conv2d(512, 512, kernel_size=(3, 3), stride=(1, 1), padding=(1, 1))
        (bn2): BatchNorm2d(512, eps=1e-05, momentum=0.1, affine=True, track_running_stats=True)
      )
      (conv5): ResBlock(
        (conv1): Conv2d(512, 512, kernel_size=(3, 3), stride=(2, 2), padding=(1, 1))
        (bn1): BatchNorm2d(512, eps=1e-05, momentum=0.1, affine=True, track_running_stats=True)
        (relu): ReLU(inplace)
        (conv2): Conv2d(512, 512, kernel_size=(3, 3), stride=(1, 1), padding=(1, 1))
        (bn2): BatchNorm2d(512, eps=1e-05, momentum=0.1, affine=True, track_running_stats=True)
        (shortcut): Sequential(
          (0): Conv2d(512, 512, kernel_size=(1, 1), stride=(2, 2))
          (1): BatchNorm2d(512, eps=1e-05, momentum=0.1, affine=True, track_running_stats=True)
        )
      )
      (conv5_1): ResBlock(
        (conv1): Conv2d(512, 512, kernel_size=(3, 3), stride=(1, 1), padding=(1, 1))
        (bn1): BatchNorm2d(512, eps=1e-05, momentum=0.1, affine=True, track_running_stats=True)
        (relu): ReLU(inplace)
        (conv2): Conv2d(512, 512, kernel_size=(3, 3), stride=(1, 1), padding=(1, 1))
        (bn2): BatchNorm2d(512, eps=1e-05, momentum=0.1, affine=True, track_running_stats=True)
      )
      (conv6): ResBlock(
        (conv1): Conv2d(512, 1024, kernel_size=(3, 3), stride=(2, 2), padding=(1, 1))
        (bn1): BatchNorm2d(1024, eps=1e-05, momentum=0.1, affine=True, track_running_stats=True)
        (relu): ReLU(inplace)
        (conv2): Conv2d(1024, 1024, kernel_size=(3, 3), stride=(1, 1), padding=(1, 1))
        (bn2): BatchNorm2d(1024, eps=1e-05, momentum=0.1, affine=True, track_running_stats=True)
        (shortcut): Sequential(
          (0): Conv2d(512, 1024, kernel_size=(1, 1), stride=(2, 2))
          (1): BatchNorm2d(1024, eps=1e-05, momentum=0.1, affine=True, track_running_stats=True)
        )
      )
      (conv6_1): ResBlock(
        (conv1): Conv2d(1024, 1024, kernel_size=(3, 3), stride=(1, 1), padding=(1, 1))
        (bn1): BatchNorm2d(1024, eps=1e-05, momentum=0.1, affine=True, track_running_stats=True)
        (relu): ReLU(inplace)
        (conv2): Conv2d(1024, 1024, kernel_size=(3, 3), stride=(1, 1), padding=(1, 1))
        (bn2): BatchNorm2d(1024, eps=1e-05, momentum=0.1, affine=True, track_running_stats=True)
      )
      (pred_flow6): Conv2d(1024, 1, kernel_size=(3, 3), stride=(1, 1), padding=(1, 1), bias=False)
      (iconv5): ConvTranspose2d(1025, 512, kernel_size=(3, 3), stride=(1, 1), padding=(1, 1))
      (iconv4): ConvTranspose2d(769, 256, kernel_size=(3, 3), stride=(1, 1), padding=(1, 1))
      (iconv3): ConvTranspose2d(385, 128, kernel_size=(3, 3), stride=(1, 1), padding=(1, 1))
      (iconv2): ConvTranspose2d(193, 64, kernel_size=(3, 3), stride=(1, 1), padding=(1, 1))
      (iconv1): ConvTranspose2d(97, 32, kernel_size=(3, 3), stride=(1, 1), padding=(1, 1))
      (iconv0): ConvTranspose2d(20, 16, kernel_size=(3, 3), stride=(1, 1), padding=(1, 1))
      (upconv5): Sequential(
        (0): ConvTranspose2d(1024, 512, kernel_size=(4, 4), stride=(2, 2), padding=(1, 1), bias=False)
        (1): LeakyReLU(negative_slope=0.1, inplace)
      )
      (upflow6to5): ConvTranspose2d(1, 1, kernel_size=(4, 4), stride=(2, 2), padding=(1, 1), bias=False)
      (pred_flow5): Conv2d(512, 1, kernel_size=(3, 3), stride=(1, 1), padding=(1, 1), bias=False)
      (upconv4): Sequential(
        (0): ConvTranspose2d(512, 256, kernel_size=(4, 4), stride=(2, 2), padding=(1, 1), bias=False)
        (1): LeakyReLU(negative_slope=0.1, inplace)
      )
      (upflow5to4): ConvTranspose2d(1, 1, kernel_size=(4, 4), stride=(2, 2), padding=(1, 1), bias=False)
      (pred_flow4): Conv2d(256, 1, kernel_size=(3, 3), stride=(1, 1), padding=(1, 1), bias=False)
      (upconv3): Sequential(
        (0): ConvTranspose2d(256, 128, kernel_size=(4, 4), stride=(2, 2), padding=(1, 1), bias=False)
        (1): LeakyReLU(negative_slope=0.1, inplace)
      )
      (upflow4to3): ConvTranspose2d(1, 1, kernel_size=(4, 4), stride=(2, 2), padding=(1, 1), bias=False)
      (pred_flow3): Conv2d(128, 1, kernel_size=(3, 3), stride=(1, 1), padding=(1, 1), bias=False)
      (upconv2): Sequential(
        (0): ConvTranspose2d(128, 64, kernel_size=(4, 4), stride=(2, 2), padding=(1, 1), bias=False)
        (1): LeakyReLU(negative_slope=0.1, inplace)
      )
      (upflow3to2): ConvTranspose2d(1, 1, kernel_size=(4, 4), stride=(2, 2), padding=(1, 1), bias=False)
      (pred_flow2): Conv2d(64, 1, kernel_size=(3, 3), stride=(1, 1), padding=(1, 1), bias=False)
      (upconv1): Sequential(
        (0): ConvTranspose2d(64, 32, kernel_size=(4, 4), stride=(2, 2), padding=(1, 1), bias=False)
        (1): LeakyReLU(negative_slope=0.1, inplace)
      )
      (upflow2to1): ConvTranspose2d(1, 1, kernel_size=(4, 4), stride=(2, 2), padding=(1, 1), bias=False)
      (pred_flow1): Conv2d(32, 1, kernel_size=(3, 3), stride=(1, 1), padding=(1, 1), bias=False)
      (upconv0): Sequential(
        (0): ConvTranspose2d(32, 16, kernel_size=(4, 4), stride=(2, 2), padding=(1, 1), bias=False)
        (1): LeakyReLU(negative_slope=0.1, inplace)
      )
      (upflow1to0): ConvTranspose2d(1, 1, kernel_size=(4, 4), stride=(2, 2), padding=(1, 1), bias=False)
      (pred_flow0): Conv2d(16, 1, kernel_size=(3, 3), stride=(1, 1), padding=(1, 1), bias=False)
    )
    (channelnorm): ChannelNorm()
    (resample1): Resample2d()
    (dispnetres): DispNetRes(
      (conv1): Sequential(
        (0): Conv2d(11, 64, kernel_size=(7, 7), stride=(2, 2), padding=(3, 3))
        (1): LeakyReLU(negative_slope=0.1, inplace)
      )
      (conv2): ResBlock(
        (conv1): Conv2d(64, 128, kernel_size=(3, 3), stride=(2, 2), padding=(1, 1))
        (bn1): BatchNorm2d(128, eps=1e-05, momentum=0.1, affine=True, track_running_stats=True)
        (relu): ReLU(inplace)
        (conv2): Conv2d(128, 128, kernel_size=(3, 3), stride=(1, 1), padding=(1, 1))
        (bn2): BatchNorm2d(128, eps=1e-05, momentum=0.1, affine=True, track_running_stats=True)
        (shortcut): Sequential(
          (0): Conv2d(64, 128, kernel_size=(1, 1), stride=(2, 2))
          (1): BatchNorm2d(128, eps=1e-05, momentum=0.1, affine=True, track_running_stats=True)
        )
      )
      (conv3): ResBlock(
        (conv1): Conv2d(128, 256, kernel_size=(3, 3), stride=(2, 2), padding=(1, 1))
        (bn1): BatchNorm2d(256, eps=1e-05, momentum=0.1, affine=True, track_running_stats=True)
        (relu): ReLU(inplace)
        (conv2): Conv2d(256, 256, kernel_size=(3, 3), stride=(1, 1), padding=(1, 1))
        (bn2): BatchNorm2d(256, eps=1e-05, momentum=0.1, affine=True, track_running_stats=True)
        (shortcut): Sequential(
          (0): Conv2d(128, 256, kernel_size=(1, 1), stride=(2, 2))
          (1): BatchNorm2d(256, eps=1e-05, momentum=0.1, affine=True, track_running_stats=True)
        )
      )
      (conv3_1): ResBlock(
        (conv1): Conv2d(256, 256, kernel_size=(3, 3), stride=(1, 1), padding=(1, 1))
        (bn1): BatchNorm2d(256, eps=1e-05, momentum=0.1, affine=True, track_running_stats=True)
        (relu): ReLU(inplace)
        (conv2): Conv2d(256, 256, kernel_size=(3, 3), stride=(1, 1), padding=(1, 1))
        (bn2): BatchNorm2d(256, eps=1e-05, momentum=0.1, affine=True, track_running_stats=True)
      )
      (conv4): ResBlock(
        (conv1): Conv2d(256, 512, kernel_size=(3, 3), stride=(2, 2), padding=(1, 1))
        (bn1): BatchNorm2d(512, eps=1e-05, momentum=0.1, affine=True, track_running_stats=True)
        (relu): ReLU(inplace)
        (conv2): Conv2d(512, 512, kernel_size=(3, 3), stride=(1, 1), padding=(1, 1))
        (bn2): BatchNorm2d(512, eps=1e-05, momentum=0.1, affine=True, track_running_stats=True)
        (shortcut): Sequential(
          (0): Conv2d(256, 512, kernel_size=(1, 1), stride=(2, 2))
          (1): BatchNorm2d(512, eps=1e-05, momentum=0.1, affine=True, track_running_stats=True)
        )
      )
      (conv4_1): ResBlock(
        (conv1): Conv2d(512, 512, kernel_size=(3, 3), stride=(1, 1), padding=(1, 1))
        (bn1): BatchNorm2d(512, eps=1e-05, momentum=0.1, affine=True, track_running_stats=True)
        (relu): ReLU(inplace)
        (conv2): Conv2d(512, 512, kernel_size=(3, 3), stride=(1, 1), padding=(1, 1))
        (bn2): BatchNorm2d(512, eps=1e-05, momentum=0.1, affine=True, track_running_stats=True)
      )
      (conv5): ResBlock(
        (conv1): Conv2d(512, 512, kernel_size=(3, 3), stride=(2, 2), padding=(1, 1))
        (bn1): BatchNorm2d(512, eps=1e-05, momentum=0.1, affine=True, track_running_stats=True)
        (relu): ReLU(inplace)
        (conv2): Conv2d(512, 512, kernel_size=(3, 3), stride=(1, 1), padding=(1, 1))
        (bn2): BatchNorm2d(512, eps=1e-05, momentum=0.1, affine=True, track_running_stats=True)
        (shortcut): Sequential(
          (0): Conv2d(512, 512, kernel_size=(1, 1), stride=(2, 2))
          (1): BatchNorm2d(512, eps=1e-05, momentum=0.1, affine=True, track_running_stats=True)
        )
      )
      (conv5_1): ResBlock(
        (conv1): Conv2d(512, 512, kernel_size=(3, 3), stride=(1, 1), padding=(1, 1))
        (bn1): BatchNorm2d(512, eps=1e-05, momentum=0.1, affine=True, track_running_stats=True)
        (relu): ReLU(inplace)
        (conv2): Conv2d(512, 512, kernel_size=(3, 3), stride=(1, 1), padding=(1, 1))
        (bn2): BatchNorm2d(512, eps=1e-05, momentum=0.1, affine=True, track_running_stats=True)
      )
      (conv6): ResBlock(
        (conv1): Conv2d(512, 1024, kernel_size=(3, 3), stride=(2, 2), padding=(1, 1))
        (bn1): BatchNorm2d(1024, eps=1e-05, momentum=0.1, affine=True, track_running_stats=True)
        (relu): ReLU(inplace)
        (conv2): Conv2d(1024, 1024, kernel_size=(3, 3), stride=(1, 1), padding=(1, 1))
        (bn2): BatchNorm2d(1024, eps=1e-05, momentum=0.1, affine=True, track_running_stats=True)
        (shortcut): Sequential(
          (0): Conv2d(512, 1024, kernel_size=(1, 1), stride=(2, 2))
          (1): BatchNorm2d(1024, eps=1e-05, momentum=0.1, affine=True, track_running_stats=True)
        )
      )
      (conv6_1): ResBlock(
        (conv1): Conv2d(1024, 1024, kernel_size=(3, 3), stride=(1, 1), padding=(1, 1))
        (bn1): BatchNorm2d(1024, eps=1e-05, momentum=0.1, affine=True, track_running_stats=True)
        (relu): ReLU(inplace)
        (conv2): Conv2d(1024, 1024, kernel_size=(3, 3), stride=(1, 1), padding=(1, 1))
        (bn2): BatchNorm2d(1024, eps=1e-05, momentum=0.1, affine=True, track_running_stats=True)
      )
      (pred_res6): Conv2d(1024, 1, kernel_size=(3, 3), stride=(1, 1), padding=(1, 1), bias=False)
      (iconv5): ConvTranspose2d(1025, 512, kernel_size=(3, 3), stride=(1, 1), padding=(1, 1))
      (iconv4): ConvTranspose2d(769, 256, kernel_size=(3, 3), stride=(1, 1), padding=(1, 1))
      (iconv3): ConvTranspose2d(385, 128, kernel_size=(3, 3), stride=(1, 1), padding=(1, 1))
      (iconv2): ConvTranspose2d(193, 64, kernel_size=(3, 3), stride=(1, 1), padding=(1, 1))
      (iconv1): ConvTranspose2d(97, 32, kernel_size=(3, 3), stride=(1, 1), padding=(1, 1))
      (iconv0): ConvTranspose2d(20, 16, kernel_size=(3, 3), stride=(1, 1), padding=(1, 1))
      (upconv5): Sequential(
        (0): ConvTranspose2d(1024, 512, kernel_size=(4, 4), stride=(2, 2), padding=(1, 1), bias=False)
        (1): LeakyReLU(negative_slope=0.1, inplace)
      )
      (upflow6to5): ConvTranspose2d(1, 1, kernel_size=(4, 4), stride=(2, 2), padding=(1, 1), bias=False)
      (pred_res5): Conv2d(512, 1, kernel_size=(3, 3), stride=(1, 1), padding=(1, 1), bias=False)
      (upconv4): Sequential(
        (0): ConvTranspose2d(512, 256, kernel_size=(4, 4), stride=(2, 2), padding=(1, 1), bias=False)
        (1): LeakyReLU(negative_slope=0.1, inplace)
      )
      (upflow5to4): ConvTranspose2d(1, 1, kernel_size=(4, 4), stride=(2, 2), padding=(1, 1), bias=False)
      (pred_res4): Conv2d(256, 1, kernel_size=(3, 3), stride=(1, 1), padding=(1, 1), bias=False)
      (upconv3): Sequential(
        (0): ConvTranspose2d(256, 128, kernel_size=(4, 4), stride=(2, 2), padding=(1, 1), bias=False)
        (1): LeakyReLU(negative_slope=0.1, inplace)
      )
      (upflow4to3): ConvTranspose2d(1, 1, kernel_size=(4, 4), stride=(2, 2), padding=(1, 1), bias=False)
      (pred_res3): Conv2d(128, 1, kernel_size=(3, 3), stride=(1, 1), padding=(1, 1), bias=False)
      (upconv2): Sequential(
        (0): ConvTranspose2d(128, 64, kernel_size=(4, 4), stride=(2, 2), padding=(1, 1), bias=False)
        (1): LeakyReLU(negative_slope=0.1, inplace)
      )
      (upflow3to2): ConvTranspose2d(1, 1, kernel_size=(4, 4), stride=(2, 2), padding=(1, 1), bias=False)
      (pred_res2): Conv2d(64, 1, kernel_size=(3, 3), stride=(1, 1), padding=(1, 1), bias=False)
      (upconv1): Sequential(
        (0): ConvTranspose2d(64, 32, kernel_size=(4, 4), stride=(2, 2), padding=(1, 1), bias=False)
        (1): LeakyReLU(negative_slope=0.1, inplace)
      )
      (upflow2to1): ConvTranspose2d(1, 1, kernel_size=(4, 4), stride=(2, 2), padding=(1, 1), bias=False)
      (pred_res1): Conv2d(32, 1, kernel_size=(3, 3), stride=(1, 1), padding=(1, 1), bias=False)
      (upconv0): Sequential(
        (0): ConvTranspose2d(32, 16, kernel_size=(4, 4), stride=(2, 2), padding=(1, 1), bias=False)
        (1): LeakyReLU(negative_slope=0.1, inplace)
      )
      (upflow1to0): ConvTranspose2d(1, 1, kernel_size=(4, 4), stride=(2, 2), padding=(1, 1), bias=False)
      (pred_res0): Conv2d(16, 1, kernel_size=(3, 3), stride=(1, 1), padding=(1, 1), bias=False)
      (relu): ReLU()
    )
    (relu): ReLU()
  )
)"
epoch	time_stamp	train_loss	train_EPE	EPE	lr
Namespace(augment=0, batchSize=8, beta=0.999, cuda=True, datapath='/data2/virtual3', devices='0,1,2,3', domain_transfer=0, endEpoch=200, flowDiv=1.0, logFile='girl-ir-train-dispCSRes.log', lr=0.01, manualSeed=6665, model='', momentum=0.9, outf='./models/girl-ir-dispCSRes', showFreq=1, startEpoch=0, tdlist='real_sgm_release.list', trainlist='./lists/girl_with_ir2_TRAIN.list', vallist='./lists/girl_with_ir2_TEST.list', workers=8)
"DataParallel(
  (module): DispNetCSRes(
    (dispnetc): DispNetC(
      (conv1): Sequential(
        (0): Conv2d(3, 64, kernel_size=(7, 7), stride=(2, 2), padding=(3, 3))
        (1): LeakyReLU(negative_slope=0.1, inplace)
      )
      (conv2): ResBlock(
        (conv1): Conv2d(64, 128, kernel_size=(3, 3), stride=(2, 2), padding=(1, 1))
        (bn1): BatchNorm2d(128, eps=1e-05, momentum=0.1, affine=True, track_running_stats=True)
        (relu): ReLU(inplace)
        (conv2): Conv2d(128, 128, kernel_size=(3, 3), stride=(1, 1), padding=(1, 1))
        (bn2): BatchNorm2d(128, eps=1e-05, momentum=0.1, affine=True, track_running_stats=True)
        (shortcut): Sequential(
          (0): Conv2d(64, 128, kernel_size=(1, 1), stride=(2, 2))
          (1): BatchNorm2d(128, eps=1e-05, momentum=0.1, affine=True, track_running_stats=True)
        )
      )
      (conv3): ResBlock(
        (conv1): Conv2d(128, 256, kernel_size=(3, 3), stride=(2, 2), padding=(1, 1))
        (bn1): BatchNorm2d(256, eps=1e-05, momentum=0.1, affine=True, track_running_stats=True)
        (relu): ReLU(inplace)
        (conv2): Conv2d(256, 256, kernel_size=(3, 3), stride=(1, 1), padding=(1, 1))
        (bn2): BatchNorm2d(256, eps=1e-05, momentum=0.1, affine=True, track_running_stats=True)
        (shortcut): Sequential(
          (0): Conv2d(128, 256, kernel_size=(1, 1), stride=(2, 2))
          (1): BatchNorm2d(256, eps=1e-05, momentum=0.1, affine=True, track_running_stats=True)
        )
      )
      (conv_redir): ResBlock(
        (conv1): Conv2d(256, 32, kernel_size=(3, 3), stride=(1, 1), padding=(1, 1))
        (bn1): BatchNorm2d(32, eps=1e-05, momentum=0.1, affine=True, track_running_stats=True)
        (relu): ReLU(inplace)
        (conv2): Conv2d(32, 32, kernel_size=(3, 3), stride=(1, 1), padding=(1, 1))
        (bn2): BatchNorm2d(32, eps=1e-05, momentum=0.1, affine=True, track_running_stats=True)
        (shortcut): Sequential(
          (0): Conv2d(256, 32, kernel_size=(1, 1), stride=(1, 1))
          (1): BatchNorm2d(32, eps=1e-05, momentum=0.1, affine=True, track_running_stats=True)
        )
      )
      (corr): Correlation()
      (corr_activation): LeakyReLU(negative_slope=0.1, inplace)
      (conv3_1): ResBlock(
        (conv1): Conv2d(473, 256, kernel_size=(3, 3), stride=(1, 1), padding=(1, 1))
        (bn1): BatchNorm2d(256, eps=1e-05, momentum=0.1, affine=True, track_running_stats=True)
        (relu): ReLU(inplace)
        (conv2): Conv2d(256, 256, kernel_size=(3, 3), stride=(1, 1), padding=(1, 1))
        (bn2): BatchNorm2d(256, eps=1e-05, momentum=0.1, affine=True, track_running_stats=True)
        (shortcut): Sequential(
          (0): Conv2d(473, 256, kernel_size=(1, 1), stride=(1, 1))
          (1): BatchNorm2d(256, eps=1e-05, momentum=0.1, affine=True, track_running_stats=True)
        )
      )
      (conv4): ResBlock(
        (conv1): Conv2d(256, 512, kernel_size=(3, 3), stride=(2, 2), padding=(1, 1))
        (bn1): BatchNorm2d(512, eps=1e-05, momentum=0.1, affine=True, track_running_stats=True)
        (relu): ReLU(inplace)
        (conv2): Conv2d(512, 512, kernel_size=(3, 3), stride=(1, 1), padding=(1, 1))
        (bn2): BatchNorm2d(512, eps=1e-05, momentum=0.1, affine=True, track_running_stats=True)
        (shortcut): Sequential(
          (0): Conv2d(256, 512, kernel_size=(1, 1), stride=(2, 2))
          (1): BatchNorm2d(512, eps=1e-05, momentum=0.1, affine=True, track_running_stats=True)
        )
      )
      (conv4_1): ResBlock(
        (conv1): Conv2d(512, 512, kernel_size=(3, 3), stride=(1, 1), padding=(1, 1))
        (bn1): BatchNorm2d(512, eps=1e-05, momentum=0.1, affine=True, track_running_stats=True)
        (relu): ReLU(inplace)
        (conv2): Conv2d(512, 512, kernel_size=(3, 3), stride=(1, 1), padding=(1, 1))
        (bn2): BatchNorm2d(512, eps=1e-05, momentum=0.1, affine=True, track_running_stats=True)
      )
      (conv5): ResBlock(
        (conv1): Conv2d(512, 512, kernel_size=(3, 3), stride=(2, 2), padding=(1, 1))
        (bn1): BatchNorm2d(512, eps=1e-05, momentum=0.1, affine=True, track_running_stats=True)
        (relu): ReLU(inplace)
        (conv2): Conv2d(512, 512, kernel_size=(3, 3), stride=(1, 1), padding=(1, 1))
        (bn2): BatchNorm2d(512, eps=1e-05, momentum=0.1, affine=True, track_running_stats=True)
        (shortcut): Sequential(
          (0): Conv2d(512, 512, kernel_size=(1, 1), stride=(2, 2))
          (1): BatchNorm2d(512, eps=1e-05, momentum=0.1, affine=True, track_running_stats=True)
        )
      )
      (conv5_1): ResBlock(
        (conv1): Conv2d(512, 512, kernel_size=(3, 3), stride=(1, 1), padding=(1, 1))
        (bn1): BatchNorm2d(512, eps=1e-05, momentum=0.1, affine=True, track_running_stats=True)
        (relu): ReLU(inplace)
        (conv2): Conv2d(512, 512, kernel_size=(3, 3), stride=(1, 1), padding=(1, 1))
        (bn2): BatchNorm2d(512, eps=1e-05, momentum=0.1, affine=True, track_running_stats=True)
      )
      (conv6): ResBlock(
        (conv1): Conv2d(512, 1024, kernel_size=(3, 3), stride=(2, 2), padding=(1, 1))
        (bn1): BatchNorm2d(1024, eps=1e-05, momentum=0.1, affine=True, track_running_stats=True)
        (relu): ReLU(inplace)
        (conv2): Conv2d(1024, 1024, kernel_size=(3, 3), stride=(1, 1), padding=(1, 1))
        (bn2): BatchNorm2d(1024, eps=1e-05, momentum=0.1, affine=True, track_running_stats=True)
        (shortcut): Sequential(
          (0): Conv2d(512, 1024, kernel_size=(1, 1), stride=(2, 2))
          (1): BatchNorm2d(1024, eps=1e-05, momentum=0.1, affine=True, track_running_stats=True)
        )
      )
      (conv6_1): ResBlock(
        (conv1): Conv2d(1024, 1024, kernel_size=(3, 3), stride=(1, 1), padding=(1, 1))
        (bn1): BatchNorm2d(1024, eps=1e-05, momentum=0.1, affine=True, track_running_stats=True)
        (relu): ReLU(inplace)
        (conv2): Conv2d(1024, 1024, kernel_size=(3, 3), stride=(1, 1), padding=(1, 1))
        (bn2): BatchNorm2d(1024, eps=1e-05, momentum=0.1, affine=True, track_running_stats=True)
      )
      (pred_flow6): Conv2d(1024, 1, kernel_size=(3, 3), stride=(1, 1), padding=(1, 1), bias=False)
      (iconv5): ConvTranspose2d(1025, 512, kernel_size=(3, 3), stride=(1, 1), padding=(1, 1))
      (iconv4): ConvTranspose2d(769, 256, kernel_size=(3, 3), stride=(1, 1), padding=(1, 1))
      (iconv3): ConvTranspose2d(385, 128, kernel_size=(3, 3), stride=(1, 1), padding=(1, 1))
      (iconv2): ConvTranspose2d(193, 64, kernel_size=(3, 3), stride=(1, 1), padding=(1, 1))
      (iconv1): ConvTranspose2d(97, 32, kernel_size=(3, 3), stride=(1, 1), padding=(1, 1))
      (iconv0): ConvTranspose2d(20, 16, kernel_size=(3, 3), stride=(1, 1), padding=(1, 1))
      (upconv5): Sequential(
        (0): ConvTranspose2d(1024, 512, kernel_size=(4, 4), stride=(2, 2), padding=(1, 1), bias=False)
        (1): LeakyReLU(negative_slope=0.1, inplace)
      )
      (upflow6to5): ConvTranspose2d(1, 1, kernel_size=(4, 4), stride=(2, 2), padding=(1, 1), bias=False)
      (pred_flow5): Conv2d(512, 1, kernel_size=(3, 3), stride=(1, 1), padding=(1, 1), bias=False)
      (upconv4): Sequential(
        (0): ConvTranspose2d(512, 256, kernel_size=(4, 4), stride=(2, 2), padding=(1, 1), bias=False)
        (1): LeakyReLU(negative_slope=0.1, inplace)
      )
      (upflow5to4): ConvTranspose2d(1, 1, kernel_size=(4, 4), stride=(2, 2), padding=(1, 1), bias=False)
      (pred_flow4): Conv2d(256, 1, kernel_size=(3, 3), stride=(1, 1), padding=(1, 1), bias=False)
      (upconv3): Sequential(
        (0): ConvTranspose2d(256, 128, kernel_size=(4, 4), stride=(2, 2), padding=(1, 1), bias=False)
        (1): LeakyReLU(negative_slope=0.1, inplace)
      )
      (upflow4to3): ConvTranspose2d(1, 1, kernel_size=(4, 4), stride=(2, 2), padding=(1, 1), bias=False)
      (pred_flow3): Conv2d(128, 1, kernel_size=(3, 3), stride=(1, 1), padding=(1, 1), bias=False)
      (upconv2): Sequential(
        (0): ConvTranspose2d(128, 64, kernel_size=(4, 4), stride=(2, 2), padding=(1, 1), bias=False)
        (1): LeakyReLU(negative_slope=0.1, inplace)
      )
      (upflow3to2): ConvTranspose2d(1, 1, kernel_size=(4, 4), stride=(2, 2), padding=(1, 1), bias=False)
      (pred_flow2): Conv2d(64, 1, kernel_size=(3, 3), stride=(1, 1), padding=(1, 1), bias=False)
      (upconv1): Sequential(
        (0): ConvTranspose2d(64, 32, kernel_size=(4, 4), stride=(2, 2), padding=(1, 1), bias=False)
        (1): LeakyReLU(negative_slope=0.1, inplace)
      )
      (upflow2to1): ConvTranspose2d(1, 1, kernel_size=(4, 4), stride=(2, 2), padding=(1, 1), bias=False)
      (pred_flow1): Conv2d(32, 1, kernel_size=(3, 3), stride=(1, 1), padding=(1, 1), bias=False)
      (upconv0): Sequential(
        (0): ConvTranspose2d(32, 16, kernel_size=(4, 4), stride=(2, 2), padding=(1, 1), bias=False)
        (1): LeakyReLU(negative_slope=0.1, inplace)
      )
      (upflow1to0): ConvTranspose2d(1, 1, kernel_size=(4, 4), stride=(2, 2), padding=(1, 1), bias=False)
      (pred_flow0): Conv2d(16, 1, kernel_size=(3, 3), stride=(1, 1), padding=(1, 1), bias=False)
    )
    (channelnorm): ChannelNorm()
    (resample1): Resample2d()
    (dispnetres): DispNetRes(
      (conv1): Sequential(
        (0): Conv2d(11, 64, kernel_size=(7, 7), stride=(2, 2), padding=(3, 3))
        (1): LeakyReLU(negative_slope=0.1, inplace)
      )
      (conv2): ResBlock(
        (conv1): Conv2d(64, 128, kernel_size=(3, 3), stride=(2, 2), padding=(1, 1))
        (bn1): BatchNorm2d(128, eps=1e-05, momentum=0.1, affine=True, track_running_stats=True)
        (relu): ReLU(inplace)
        (conv2): Conv2d(128, 128, kernel_size=(3, 3), stride=(1, 1), padding=(1, 1))
        (bn2): BatchNorm2d(128, eps=1e-05, momentum=0.1, affine=True, track_running_stats=True)
        (shortcut): Sequential(
          (0): Conv2d(64, 128, kernel_size=(1, 1), stride=(2, 2))
          (1): BatchNorm2d(128, eps=1e-05, momentum=0.1, affine=True, track_running_stats=True)
        )
      )
      (conv3): ResBlock(
        (conv1): Conv2d(128, 256, kernel_size=(3, 3), stride=(2, 2), padding=(1, 1))
        (bn1): BatchNorm2d(256, eps=1e-05, momentum=0.1, affine=True, track_running_stats=True)
        (relu): ReLU(inplace)
        (conv2): Conv2d(256, 256, kernel_size=(3, 3), stride=(1, 1), padding=(1, 1))
        (bn2): BatchNorm2d(256, eps=1e-05, momentum=0.1, affine=True, track_running_stats=True)
        (shortcut): Sequential(
          (0): Conv2d(128, 256, kernel_size=(1, 1), stride=(2, 2))
          (1): BatchNorm2d(256, eps=1e-05, momentum=0.1, affine=True, track_running_stats=True)
        )
      )
      (conv3_1): ResBlock(
        (conv1): Conv2d(256, 256, kernel_size=(3, 3), stride=(1, 1), padding=(1, 1))
        (bn1): BatchNorm2d(256, eps=1e-05, momentum=0.1, affine=True, track_running_stats=True)
        (relu): ReLU(inplace)
        (conv2): Conv2d(256, 256, kernel_size=(3, 3), stride=(1, 1), padding=(1, 1))
        (bn2): BatchNorm2d(256, eps=1e-05, momentum=0.1, affine=True, track_running_stats=True)
      )
      (conv4): ResBlock(
        (conv1): Conv2d(256, 512, kernel_size=(3, 3), stride=(2, 2), padding=(1, 1))
        (bn1): BatchNorm2d(512, eps=1e-05, momentum=0.1, affine=True, track_running_stats=True)
        (relu): ReLU(inplace)
        (conv2): Conv2d(512, 512, kernel_size=(3, 3), stride=(1, 1), padding=(1, 1))
        (bn2): BatchNorm2d(512, eps=1e-05, momentum=0.1, affine=True, track_running_stats=True)
        (shortcut): Sequential(
          (0): Conv2d(256, 512, kernel_size=(1, 1), stride=(2, 2))
          (1): BatchNorm2d(512, eps=1e-05, momentum=0.1, affine=True, track_running_stats=True)
        )
      )
      (conv4_1): ResBlock(
        (conv1): Conv2d(512, 512, kernel_size=(3, 3), stride=(1, 1), padding=(1, 1))
        (bn1): BatchNorm2d(512, eps=1e-05, momentum=0.1, affine=True, track_running_stats=True)
        (relu): ReLU(inplace)
        (conv2): Conv2d(512, 512, kernel_size=(3, 3), stride=(1, 1), padding=(1, 1))
        (bn2): BatchNorm2d(512, eps=1e-05, momentum=0.1, affine=True, track_running_stats=True)
      )
      (conv5): ResBlock(
        (conv1): Conv2d(512, 512, kernel_size=(3, 3), stride=(2, 2), padding=(1, 1))
        (bn1): BatchNorm2d(512, eps=1e-05, momentum=0.1, affine=True, track_running_stats=True)
        (relu): ReLU(inplace)
        (conv2): Conv2d(512, 512, kernel_size=(3, 3), stride=(1, 1), padding=(1, 1))
        (bn2): BatchNorm2d(512, eps=1e-05, momentum=0.1, affine=True, track_running_stats=True)
        (shortcut): Sequential(
          (0): Conv2d(512, 512, kernel_size=(1, 1), stride=(2, 2))
          (1): BatchNorm2d(512, eps=1e-05, momentum=0.1, affine=True, track_running_stats=True)
        )
      )
      (conv5_1): ResBlock(
        (conv1): Conv2d(512, 512, kernel_size=(3, 3), stride=(1, 1), padding=(1, 1))
        (bn1): BatchNorm2d(512, eps=1e-05, momentum=0.1, affine=True, track_running_stats=True)
        (relu): ReLU(inplace)
        (conv2): Conv2d(512, 512, kernel_size=(3, 3), stride=(1, 1), padding=(1, 1))
        (bn2): BatchNorm2d(512, eps=1e-05, momentum=0.1, affine=True, track_running_stats=True)
      )
      (conv6): ResBlock(
        (conv1): Conv2d(512, 1024, kernel_size=(3, 3), stride=(2, 2), padding=(1, 1))
        (bn1): BatchNorm2d(1024, eps=1e-05, momentum=0.1, affine=True, track_running_stats=True)
        (relu): ReLU(inplace)
        (conv2): Conv2d(1024, 1024, kernel_size=(3, 3), stride=(1, 1), padding=(1, 1))
        (bn2): BatchNorm2d(1024, eps=1e-05, momentum=0.1, affine=True, track_running_stats=True)
        (shortcut): Sequential(
          (0): Conv2d(512, 1024, kernel_size=(1, 1), stride=(2, 2))
          (1): BatchNorm2d(1024, eps=1e-05, momentum=0.1, affine=True, track_running_stats=True)
        )
      )
      (conv6_1): ResBlock(
        (conv1): Conv2d(1024, 1024, kernel_size=(3, 3), stride=(1, 1), padding=(1, 1))
        (bn1): BatchNorm2d(1024, eps=1e-05, momentum=0.1, affine=True, track_running_stats=True)
        (relu): ReLU(inplace)
        (conv2): Conv2d(1024, 1024, kernel_size=(3, 3), stride=(1, 1), padding=(1, 1))
        (bn2): BatchNorm2d(1024, eps=1e-05, momentum=0.1, affine=True, track_running_stats=True)
      )
      (pred_res6): Conv2d(1024, 1, kernel_size=(3, 3), stride=(1, 1), padding=(1, 1), bias=False)
      (iconv5): ConvTranspose2d(1025, 512, kernel_size=(3, 3), stride=(1, 1), padding=(1, 1))
      (iconv4): ConvTranspose2d(769, 256, kernel_size=(3, 3), stride=(1, 1), padding=(1, 1))
      (iconv3): ConvTranspose2d(385, 128, kernel_size=(3, 3), stride=(1, 1), padding=(1, 1))
      (iconv2): ConvTranspose2d(193, 64, kernel_size=(3, 3), stride=(1, 1), padding=(1, 1))
      (iconv1): ConvTranspose2d(97, 32, kernel_size=(3, 3), stride=(1, 1), padding=(1, 1))
      (iconv0): ConvTranspose2d(20, 16, kernel_size=(3, 3), stride=(1, 1), padding=(1, 1))
      (upconv5): Sequential(
        (0): ConvTranspose2d(1024, 512, kernel_size=(4, 4), stride=(2, 2), padding=(1, 1), bias=False)
        (1): LeakyReLU(negative_slope=0.1, inplace)
      )
      (upflow6to5): ConvTranspose2d(1, 1, kernel_size=(4, 4), stride=(2, 2), padding=(1, 1), bias=False)
      (pred_res5): Conv2d(512, 1, kernel_size=(3, 3), stride=(1, 1), padding=(1, 1), bias=False)
      (upconv4): Sequential(
        (0): ConvTranspose2d(512, 256, kernel_size=(4, 4), stride=(2, 2), padding=(1, 1), bias=False)
        (1): LeakyReLU(negative_slope=0.1, inplace)
      )
      (upflow5to4): ConvTranspose2d(1, 1, kernel_size=(4, 4), stride=(2, 2), padding=(1, 1), bias=False)
      (pred_res4): Conv2d(256, 1, kernel_size=(3, 3), stride=(1, 1), padding=(1, 1), bias=False)
      (upconv3): Sequential(
        (0): ConvTranspose2d(256, 128, kernel_size=(4, 4), stride=(2, 2), padding=(1, 1), bias=False)
        (1): LeakyReLU(negative_slope=0.1, inplace)
      )
      (upflow4to3): ConvTranspose2d(1, 1, kernel_size=(4, 4), stride=(2, 2), padding=(1, 1), bias=False)
      (pred_res3): Conv2d(128, 1, kernel_size=(3, 3), stride=(1, 1), padding=(1, 1), bias=False)
      (upconv2): Sequential(
        (0): ConvTranspose2d(128, 64, kernel_size=(4, 4), stride=(2, 2), padding=(1, 1), bias=False)
        (1): LeakyReLU(negative_slope=0.1, inplace)
      )
      (upflow3to2): ConvTranspose2d(1, 1, kernel_size=(4, 4), stride=(2, 2), padding=(1, 1), bias=False)
      (pred_res2): Conv2d(64, 1, kernel_size=(3, 3), stride=(1, 1), padding=(1, 1), bias=False)
      (upconv1): Sequential(
        (0): ConvTranspose2d(64, 32, kernel_size=(4, 4), stride=(2, 2), padding=(1, 1), bias=False)
        (1): LeakyReLU(negative_slope=0.1, inplace)
      )
      (upflow2to1): ConvTranspose2d(1, 1, kernel_size=(4, 4), stride=(2, 2), padding=(1, 1), bias=False)
      (pred_res1): Conv2d(32, 1, kernel_size=(3, 3), stride=(1, 1), padding=(1, 1), bias=False)
      (upconv0): Sequential(
        (0): ConvTranspose2d(32, 16, kernel_size=(4, 4), stride=(2, 2), padding=(1, 1), bias=False)
        (1): LeakyReLU(negative_slope=0.1, inplace)
      )
      (upflow1to0): ConvTranspose2d(1, 1, kernel_size=(4, 4), stride=(2, 2), padding=(1, 1), bias=False)
      (pred_res0): Conv2d(16, 1, kernel_size=(3, 3), stride=(1, 1), padding=(1, 1), bias=False)
      (relu): ReLU()
    )
    (relu): ReLU()
  )
)"
epoch	time_stamp	train_loss	train_EPE	EPE	lr
Namespace(augment=0, batchSize=8, beta=0.999, cuda=True, datapath='/data2/virtual3', devices='0,1,2,3', domain_transfer=0, endEpoch=200, flowDiv=1.0, logFile='girl-ir-train-dispCSRes.log', lr=0.01, manualSeed=1829, model='', momentum=0.9, outf='./models/girl-ir-dispCSRes', showFreq=1, startEpoch=0, tdlist='real_sgm_release.list', trainlist='./lists/girl_with_ir2_TRAIN.list', vallist='./lists/girl_with_ir2_TEST.list', workers=8)
"DataParallel(
  (module): DispNetCSRes(
    (dispnetc): DispNetC(
      (conv1): Sequential(
        (0): Conv2d(3, 64, kernel_size=(7, 7), stride=(2, 2), padding=(3, 3))
        (1): LeakyReLU(negative_slope=0.1, inplace)
      )
      (conv2): ResBlock(
        (conv1): Conv2d(64, 128, kernel_size=(3, 3), stride=(2, 2), padding=(1, 1))
        (bn1): BatchNorm2d(128, eps=1e-05, momentum=0.1, affine=True, track_running_stats=True)
        (relu): ReLU(inplace)
        (conv2): Conv2d(128, 128, kernel_size=(3, 3), stride=(1, 1), padding=(1, 1))
        (bn2): BatchNorm2d(128, eps=1e-05, momentum=0.1, affine=True, track_running_stats=True)
        (shortcut): Sequential(
          (0): Conv2d(64, 128, kernel_size=(1, 1), stride=(2, 2))
          (1): BatchNorm2d(128, eps=1e-05, momentum=0.1, affine=True, track_running_stats=True)
        )
      )
      (conv3): ResBlock(
        (conv1): Conv2d(128, 256, kernel_size=(3, 3), stride=(2, 2), padding=(1, 1))
        (bn1): BatchNorm2d(256, eps=1e-05, momentum=0.1, affine=True, track_running_stats=True)
        (relu): ReLU(inplace)
        (conv2): Conv2d(256, 256, kernel_size=(3, 3), stride=(1, 1), padding=(1, 1))
        (bn2): BatchNorm2d(256, eps=1e-05, momentum=0.1, affine=True, track_running_stats=True)
        (shortcut): Sequential(
          (0): Conv2d(128, 256, kernel_size=(1, 1), stride=(2, 2))
          (1): BatchNorm2d(256, eps=1e-05, momentum=0.1, affine=True, track_running_stats=True)
        )
      )
      (conv_redir): ResBlock(
        (conv1): Conv2d(256, 32, kernel_size=(3, 3), stride=(1, 1), padding=(1, 1))
        (bn1): BatchNorm2d(32, eps=1e-05, momentum=0.1, affine=True, track_running_stats=True)
        (relu): ReLU(inplace)
        (conv2): Conv2d(32, 32, kernel_size=(3, 3), stride=(1, 1), padding=(1, 1))
        (bn2): BatchNorm2d(32, eps=1e-05, momentum=0.1, affine=True, track_running_stats=True)
        (shortcut): Sequential(
          (0): Conv2d(256, 32, kernel_size=(1, 1), stride=(1, 1))
          (1): BatchNorm2d(32, eps=1e-05, momentum=0.1, affine=True, track_running_stats=True)
        )
      )
      (corr): Correlation()
      (corr_activation): LeakyReLU(negative_slope=0.1, inplace)
      (conv3_1): ResBlock(
        (conv1): Conv2d(473, 256, kernel_size=(3, 3), stride=(1, 1), padding=(1, 1))
        (bn1): BatchNorm2d(256, eps=1e-05, momentum=0.1, affine=True, track_running_stats=True)
        (relu): ReLU(inplace)
        (conv2): Conv2d(256, 256, kernel_size=(3, 3), stride=(1, 1), padding=(1, 1))
        (bn2): BatchNorm2d(256, eps=1e-05, momentum=0.1, affine=True, track_running_stats=True)
        (shortcut): Sequential(
          (0): Conv2d(473, 256, kernel_size=(1, 1), stride=(1, 1))
          (1): BatchNorm2d(256, eps=1e-05, momentum=0.1, affine=True, track_running_stats=True)
        )
      )
      (conv4): ResBlock(
        (conv1): Conv2d(256, 512, kernel_size=(3, 3), stride=(2, 2), padding=(1, 1))
        (bn1): BatchNorm2d(512, eps=1e-05, momentum=0.1, affine=True, track_running_stats=True)
        (relu): ReLU(inplace)
        (conv2): Conv2d(512, 512, kernel_size=(3, 3), stride=(1, 1), padding=(1, 1))
        (bn2): BatchNorm2d(512, eps=1e-05, momentum=0.1, affine=True, track_running_stats=True)
        (shortcut): Sequential(
          (0): Conv2d(256, 512, kernel_size=(1, 1), stride=(2, 2))
          (1): BatchNorm2d(512, eps=1e-05, momentum=0.1, affine=True, track_running_stats=True)
        )
      )
      (conv4_1): ResBlock(
        (conv1): Conv2d(512, 512, kernel_size=(3, 3), stride=(1, 1), padding=(1, 1))
        (bn1): BatchNorm2d(512, eps=1e-05, momentum=0.1, affine=True, track_running_stats=True)
        (relu): ReLU(inplace)
        (conv2): Conv2d(512, 512, kernel_size=(3, 3), stride=(1, 1), padding=(1, 1))
        (bn2): BatchNorm2d(512, eps=1e-05, momentum=0.1, affine=True, track_running_stats=True)
      )
      (conv5): ResBlock(
        (conv1): Conv2d(512, 512, kernel_size=(3, 3), stride=(2, 2), padding=(1, 1))
        (bn1): BatchNorm2d(512, eps=1e-05, momentum=0.1, affine=True, track_running_stats=True)
        (relu): ReLU(inplace)
        (conv2): Conv2d(512, 512, kernel_size=(3, 3), stride=(1, 1), padding=(1, 1))
        (bn2): BatchNorm2d(512, eps=1e-05, momentum=0.1, affine=True, track_running_stats=True)
        (shortcut): Sequential(
          (0): Conv2d(512, 512, kernel_size=(1, 1), stride=(2, 2))
          (1): BatchNorm2d(512, eps=1e-05, momentum=0.1, affine=True, track_running_stats=True)
        )
      )
      (conv5_1): ResBlock(
        (conv1): Conv2d(512, 512, kernel_size=(3, 3), stride=(1, 1), padding=(1, 1))
        (bn1): BatchNorm2d(512, eps=1e-05, momentum=0.1, affine=True, track_running_stats=True)
        (relu): ReLU(inplace)
        (conv2): Conv2d(512, 512, kernel_size=(3, 3), stride=(1, 1), padding=(1, 1))
        (bn2): BatchNorm2d(512, eps=1e-05, momentum=0.1, affine=True, track_running_stats=True)
      )
      (conv6): ResBlock(
        (conv1): Conv2d(512, 1024, kernel_size=(3, 3), stride=(2, 2), padding=(1, 1))
        (bn1): BatchNorm2d(1024, eps=1e-05, momentum=0.1, affine=True, track_running_stats=True)
        (relu): ReLU(inplace)
        (conv2): Conv2d(1024, 1024, kernel_size=(3, 3), stride=(1, 1), padding=(1, 1))
        (bn2): BatchNorm2d(1024, eps=1e-05, momentum=0.1, affine=True, track_running_stats=True)
        (shortcut): Sequential(
          (0): Conv2d(512, 1024, kernel_size=(1, 1), stride=(2, 2))
          (1): BatchNorm2d(1024, eps=1e-05, momentum=0.1, affine=True, track_running_stats=True)
        )
      )
      (conv6_1): ResBlock(
        (conv1): Conv2d(1024, 1024, kernel_size=(3, 3), stride=(1, 1), padding=(1, 1))
        (bn1): BatchNorm2d(1024, eps=1e-05, momentum=0.1, affine=True, track_running_stats=True)
        (relu): ReLU(inplace)
        (conv2): Conv2d(1024, 1024, kernel_size=(3, 3), stride=(1, 1), padding=(1, 1))
        (bn2): BatchNorm2d(1024, eps=1e-05, momentum=0.1, affine=True, track_running_stats=True)
      )
      (pred_flow6): Conv2d(1024, 1, kernel_size=(3, 3), stride=(1, 1), padding=(1, 1), bias=False)
      (iconv5): ConvTranspose2d(1025, 512, kernel_size=(3, 3), stride=(1, 1), padding=(1, 1))
      (iconv4): ConvTranspose2d(769, 256, kernel_size=(3, 3), stride=(1, 1), padding=(1, 1))
      (iconv3): ConvTranspose2d(385, 128, kernel_size=(3, 3), stride=(1, 1), padding=(1, 1))
      (iconv2): ConvTranspose2d(193, 64, kernel_size=(3, 3), stride=(1, 1), padding=(1, 1))
      (iconv1): ConvTranspose2d(97, 32, kernel_size=(3, 3), stride=(1, 1), padding=(1, 1))
      (iconv0): ConvTranspose2d(20, 16, kernel_size=(3, 3), stride=(1, 1), padding=(1, 1))
      (upconv5): Sequential(
        (0): ConvTranspose2d(1024, 512, kernel_size=(4, 4), stride=(2, 2), padding=(1, 1), bias=False)
        (1): LeakyReLU(negative_slope=0.1, inplace)
      )
      (upflow6to5): ConvTranspose2d(1, 1, kernel_size=(4, 4), stride=(2, 2), padding=(1, 1), bias=False)
      (pred_flow5): Conv2d(512, 1, kernel_size=(3, 3), stride=(1, 1), padding=(1, 1), bias=False)
      (upconv4): Sequential(
        (0): ConvTranspose2d(512, 256, kernel_size=(4, 4), stride=(2, 2), padding=(1, 1), bias=False)
        (1): LeakyReLU(negative_slope=0.1, inplace)
      )
      (upflow5to4): ConvTranspose2d(1, 1, kernel_size=(4, 4), stride=(2, 2), padding=(1, 1), bias=False)
      (pred_flow4): Conv2d(256, 1, kernel_size=(3, 3), stride=(1, 1), padding=(1, 1), bias=False)
      (upconv3): Sequential(
        (0): ConvTranspose2d(256, 128, kernel_size=(4, 4), stride=(2, 2), padding=(1, 1), bias=False)
        (1): LeakyReLU(negative_slope=0.1, inplace)
      )
      (upflow4to3): ConvTranspose2d(1, 1, kernel_size=(4, 4), stride=(2, 2), padding=(1, 1), bias=False)
      (pred_flow3): Conv2d(128, 1, kernel_size=(3, 3), stride=(1, 1), padding=(1, 1), bias=False)
      (upconv2): Sequential(
        (0): ConvTranspose2d(128, 64, kernel_size=(4, 4), stride=(2, 2), padding=(1, 1), bias=False)
        (1): LeakyReLU(negative_slope=0.1, inplace)
      )
      (upflow3to2): ConvTranspose2d(1, 1, kernel_size=(4, 4), stride=(2, 2), padding=(1, 1), bias=False)
      (pred_flow2): Conv2d(64, 1, kernel_size=(3, 3), stride=(1, 1), padding=(1, 1), bias=False)
      (upconv1): Sequential(
        (0): ConvTranspose2d(64, 32, kernel_size=(4, 4), stride=(2, 2), padding=(1, 1), bias=False)
        (1): LeakyReLU(negative_slope=0.1, inplace)
      )
      (upflow2to1): ConvTranspose2d(1, 1, kernel_size=(4, 4), stride=(2, 2), padding=(1, 1), bias=False)
      (pred_flow1): Conv2d(32, 1, kernel_size=(3, 3), stride=(1, 1), padding=(1, 1), bias=False)
      (upconv0): Sequential(
        (0): ConvTranspose2d(32, 16, kernel_size=(4, 4), stride=(2, 2), padding=(1, 1), bias=False)
        (1): LeakyReLU(negative_slope=0.1, inplace)
      )
      (upflow1to0): ConvTranspose2d(1, 1, kernel_size=(4, 4), stride=(2, 2), padding=(1, 1), bias=False)
      (pred_flow0): Conv2d(16, 1, kernel_size=(3, 3), stride=(1, 1), padding=(1, 1), bias=False)
    )
    (channelnorm): ChannelNorm()
    (resample1): Resample2d()
    (dispnetres): DispNetRes(
      (conv1): Sequential(
        (0): Conv2d(11, 64, kernel_size=(7, 7), stride=(2, 2), padding=(3, 3))
        (1): LeakyReLU(negative_slope=0.1, inplace)
      )
      (conv2): ResBlock(
        (conv1): Conv2d(64, 128, kernel_size=(3, 3), stride=(2, 2), padding=(1, 1))
        (bn1): BatchNorm2d(128, eps=1e-05, momentum=0.1, affine=True, track_running_stats=True)
        (relu): ReLU(inplace)
        (conv2): Conv2d(128, 128, kernel_size=(3, 3), stride=(1, 1), padding=(1, 1))
        (bn2): BatchNorm2d(128, eps=1e-05, momentum=0.1, affine=True, track_running_stats=True)
        (shortcut): Sequential(
          (0): Conv2d(64, 128, kernel_size=(1, 1), stride=(2, 2))
          (1): BatchNorm2d(128, eps=1e-05, momentum=0.1, affine=True, track_running_stats=True)
        )
      )
      (conv3): ResBlock(
        (conv1): Conv2d(128, 256, kernel_size=(3, 3), stride=(2, 2), padding=(1, 1))
        (bn1): BatchNorm2d(256, eps=1e-05, momentum=0.1, affine=True, track_running_stats=True)
        (relu): ReLU(inplace)
        (conv2): Conv2d(256, 256, kernel_size=(3, 3), stride=(1, 1), padding=(1, 1))
        (bn2): BatchNorm2d(256, eps=1e-05, momentum=0.1, affine=True, track_running_stats=True)
        (shortcut): Sequential(
          (0): Conv2d(128, 256, kernel_size=(1, 1), stride=(2, 2))
          (1): BatchNorm2d(256, eps=1e-05, momentum=0.1, affine=True, track_running_stats=True)
        )
      )
      (conv3_1): ResBlock(
        (conv1): Conv2d(256, 256, kernel_size=(3, 3), stride=(1, 1), padding=(1, 1))
        (bn1): BatchNorm2d(256, eps=1e-05, momentum=0.1, affine=True, track_running_stats=True)
        (relu): ReLU(inplace)
        (conv2): Conv2d(256, 256, kernel_size=(3, 3), stride=(1, 1), padding=(1, 1))
        (bn2): BatchNorm2d(256, eps=1e-05, momentum=0.1, affine=True, track_running_stats=True)
      )
      (conv4): ResBlock(
        (conv1): Conv2d(256, 512, kernel_size=(3, 3), stride=(2, 2), padding=(1, 1))
        (bn1): BatchNorm2d(512, eps=1e-05, momentum=0.1, affine=True, track_running_stats=True)
        (relu): ReLU(inplace)
        (conv2): Conv2d(512, 512, kernel_size=(3, 3), stride=(1, 1), padding=(1, 1))
        (bn2): BatchNorm2d(512, eps=1e-05, momentum=0.1, affine=True, track_running_stats=True)
        (shortcut): Sequential(
          (0): Conv2d(256, 512, kernel_size=(1, 1), stride=(2, 2))
          (1): BatchNorm2d(512, eps=1e-05, momentum=0.1, affine=True, track_running_stats=True)
        )
      )
      (conv4_1): ResBlock(
        (conv1): Conv2d(512, 512, kernel_size=(3, 3), stride=(1, 1), padding=(1, 1))
        (bn1): BatchNorm2d(512, eps=1e-05, momentum=0.1, affine=True, track_running_stats=True)
        (relu): ReLU(inplace)
        (conv2): Conv2d(512, 512, kernel_size=(3, 3), stride=(1, 1), padding=(1, 1))
        (bn2): BatchNorm2d(512, eps=1e-05, momentum=0.1, affine=True, track_running_stats=True)
      )
      (conv5): ResBlock(
        (conv1): Conv2d(512, 512, kernel_size=(3, 3), stride=(2, 2), padding=(1, 1))
        (bn1): BatchNorm2d(512, eps=1e-05, momentum=0.1, affine=True, track_running_stats=True)
        (relu): ReLU(inplace)
        (conv2): Conv2d(512, 512, kernel_size=(3, 3), stride=(1, 1), padding=(1, 1))
        (bn2): BatchNorm2d(512, eps=1e-05, momentum=0.1, affine=True, track_running_stats=True)
        (shortcut): Sequential(
          (0): Conv2d(512, 512, kernel_size=(1, 1), stride=(2, 2))
          (1): BatchNorm2d(512, eps=1e-05, momentum=0.1, affine=True, track_running_stats=True)
        )
      )
      (conv5_1): ResBlock(
        (conv1): Conv2d(512, 512, kernel_size=(3, 3), stride=(1, 1), padding=(1, 1))
        (bn1): BatchNorm2d(512, eps=1e-05, momentum=0.1, affine=True, track_running_stats=True)
        (relu): ReLU(inplace)
        (conv2): Conv2d(512, 512, kernel_size=(3, 3), stride=(1, 1), padding=(1, 1))
        (bn2): BatchNorm2d(512, eps=1e-05, momentum=0.1, affine=True, track_running_stats=True)
      )
      (conv6): ResBlock(
        (conv1): Conv2d(512, 1024, kernel_size=(3, 3), stride=(2, 2), padding=(1, 1))
        (bn1): BatchNorm2d(1024, eps=1e-05, momentum=0.1, affine=True, track_running_stats=True)
        (relu): ReLU(inplace)
        (conv2): Conv2d(1024, 1024, kernel_size=(3, 3), stride=(1, 1), padding=(1, 1))
        (bn2): BatchNorm2d(1024, eps=1e-05, momentum=0.1, affine=True, track_running_stats=True)
        (shortcut): Sequential(
          (0): Conv2d(512, 1024, kernel_size=(1, 1), stride=(2, 2))
          (1): BatchNorm2d(1024, eps=1e-05, momentum=0.1, affine=True, track_running_stats=True)
        )
      )
      (conv6_1): ResBlock(
        (conv1): Conv2d(1024, 1024, kernel_size=(3, 3), stride=(1, 1), padding=(1, 1))
        (bn1): BatchNorm2d(1024, eps=1e-05, momentum=0.1, affine=True, track_running_stats=True)
        (relu): ReLU(inplace)
        (conv2): Conv2d(1024, 1024, kernel_size=(3, 3), stride=(1, 1), padding=(1, 1))
        (bn2): BatchNorm2d(1024, eps=1e-05, momentum=0.1, affine=True, track_running_stats=True)
      )
      (pred_res6): Conv2d(1024, 1, kernel_size=(3, 3), stride=(1, 1), padding=(1, 1), bias=False)
      (iconv5): ConvTranspose2d(1025, 512, kernel_size=(3, 3), stride=(1, 1), padding=(1, 1))
      (iconv4): ConvTranspose2d(769, 256, kernel_size=(3, 3), stride=(1, 1), padding=(1, 1))
      (iconv3): ConvTranspose2d(385, 128, kernel_size=(3, 3), stride=(1, 1), padding=(1, 1))
      (iconv2): ConvTranspose2d(193, 64, kernel_size=(3, 3), stride=(1, 1), padding=(1, 1))
      (iconv1): ConvTranspose2d(97, 32, kernel_size=(3, 3), stride=(1, 1), padding=(1, 1))
      (iconv0): ConvTranspose2d(20, 16, kernel_size=(3, 3), stride=(1, 1), padding=(1, 1))
      (upconv5): Sequential(
        (0): ConvTranspose2d(1024, 512, kernel_size=(4, 4), stride=(2, 2), padding=(1, 1), bias=False)
        (1): LeakyReLU(negative_slope=0.1, inplace)
      )
      (upflow6to5): ConvTranspose2d(1, 1, kernel_size=(4, 4), stride=(2, 2), padding=(1, 1), bias=False)
      (pred_res5): Conv2d(512, 1, kernel_size=(3, 3), stride=(1, 1), padding=(1, 1), bias=False)
      (upconv4): Sequential(
        (0): ConvTranspose2d(512, 256, kernel_size=(4, 4), stride=(2, 2), padding=(1, 1), bias=False)
        (1): LeakyReLU(negative_slope=0.1, inplace)
      )
      (upflow5to4): ConvTranspose2d(1, 1, kernel_size=(4, 4), stride=(2, 2), padding=(1, 1), bias=False)
      (pred_res4): Conv2d(256, 1, kernel_size=(3, 3), stride=(1, 1), padding=(1, 1), bias=False)
      (upconv3): Sequential(
        (0): ConvTranspose2d(256, 128, kernel_size=(4, 4), stride=(2, 2), padding=(1, 1), bias=False)
        (1): LeakyReLU(negative_slope=0.1, inplace)
      )
      (upflow4to3): ConvTranspose2d(1, 1, kernel_size=(4, 4), stride=(2, 2), padding=(1, 1), bias=False)
      (pred_res3): Conv2d(128, 1, kernel_size=(3, 3), stride=(1, 1), padding=(1, 1), bias=False)
      (upconv2): Sequential(
        (0): ConvTranspose2d(128, 64, kernel_size=(4, 4), stride=(2, 2), padding=(1, 1), bias=False)
        (1): LeakyReLU(negative_slope=0.1, inplace)
      )
      (upflow3to2): ConvTranspose2d(1, 1, kernel_size=(4, 4), stride=(2, 2), padding=(1, 1), bias=False)
      (pred_res2): Conv2d(64, 1, kernel_size=(3, 3), stride=(1, 1), padding=(1, 1), bias=False)
      (upconv1): Sequential(
        (0): ConvTranspose2d(64, 32, kernel_size=(4, 4), stride=(2, 2), padding=(1, 1), bias=False)
        (1): LeakyReLU(negative_slope=0.1, inplace)
      )
      (upflow2to1): ConvTranspose2d(1, 1, kernel_size=(4, 4), stride=(2, 2), padding=(1, 1), bias=False)
      (pred_res1): Conv2d(32, 1, kernel_size=(3, 3), stride=(1, 1), padding=(1, 1), bias=False)
      (upconv0): Sequential(
        (0): ConvTranspose2d(32, 16, kernel_size=(4, 4), stride=(2, 2), padding=(1, 1), bias=False)
        (1): LeakyReLU(negative_slope=0.1, inplace)
      )
      (upflow1to0): ConvTranspose2d(1, 1, kernel_size=(4, 4), stride=(2, 2), padding=(1, 1), bias=False)
      (pred_res0): Conv2d(16, 1, kernel_size=(3, 3), stride=(1, 1), padding=(1, 1), bias=False)
      (relu): ReLU()
    )
    (relu): ReLU()
  )
)"
epoch	time_stamp	train_loss	train_EPE	EPE	lr
Namespace(augment=0, batchSize=8, beta=0.999, cuda=True, datapath='/data2/virtual3', devices='0,1,2,3', domain_transfer=0, endEpoch=200, flowDiv=1.0, logFile='girl-ir-train-dispCSRes.log', lr=0.01, manualSeed=2452, model='', momentum=0.9, outf='./models/girl-ir-dispCSRes', showFreq=1, startEpoch=0, tdlist='real_sgm_release.list', trainlist='./lists/girl_with_ir2_TRAIN.list', vallist='./lists/girl_with_ir2_TEST.list', workers=8)
"DataParallel(
  (module): DispNetCSRes(
    (dispnetc): DispNetC(
      (conv1): Sequential(
        (0): Conv2d(3, 64, kernel_size=(7, 7), stride=(2, 2), padding=(3, 3))
        (1): LeakyReLU(negative_slope=0.1, inplace)
      )
      (conv2): ResBlock(
        (conv1): Conv2d(64, 128, kernel_size=(3, 3), stride=(2, 2), padding=(1, 1))
        (bn1): BatchNorm2d(128, eps=1e-05, momentum=0.1, affine=True, track_running_stats=True)
        (relu): ReLU(inplace)
        (conv2): Conv2d(128, 128, kernel_size=(3, 3), stride=(1, 1), padding=(1, 1))
        (bn2): BatchNorm2d(128, eps=1e-05, momentum=0.1, affine=True, track_running_stats=True)
        (shortcut): Sequential(
          (0): Conv2d(64, 128, kernel_size=(1, 1), stride=(2, 2))
          (1): BatchNorm2d(128, eps=1e-05, momentum=0.1, affine=True, track_running_stats=True)
        )
      )
      (conv3): ResBlock(
        (conv1): Conv2d(128, 256, kernel_size=(3, 3), stride=(2, 2), padding=(1, 1))
        (bn1): BatchNorm2d(256, eps=1e-05, momentum=0.1, affine=True, track_running_stats=True)
        (relu): ReLU(inplace)
        (conv2): Conv2d(256, 256, kernel_size=(3, 3), stride=(1, 1), padding=(1, 1))
        (bn2): BatchNorm2d(256, eps=1e-05, momentum=0.1, affine=True, track_running_stats=True)
        (shortcut): Sequential(
          (0): Conv2d(128, 256, kernel_size=(1, 1), stride=(2, 2))
          (1): BatchNorm2d(256, eps=1e-05, momentum=0.1, affine=True, track_running_stats=True)
        )
      )
      (conv_redir): ResBlock(
        (conv1): Conv2d(256, 32, kernel_size=(3, 3), stride=(1, 1), padding=(1, 1))
        (bn1): BatchNorm2d(32, eps=1e-05, momentum=0.1, affine=True, track_running_stats=True)
        (relu): ReLU(inplace)
        (conv2): Conv2d(32, 32, kernel_size=(3, 3), stride=(1, 1), padding=(1, 1))
        (bn2): BatchNorm2d(32, eps=1e-05, momentum=0.1, affine=True, track_running_stats=True)
        (shortcut): Sequential(
          (0): Conv2d(256, 32, kernel_size=(1, 1), stride=(1, 1))
          (1): BatchNorm2d(32, eps=1e-05, momentum=0.1, affine=True, track_running_stats=True)
        )
      )
      (corr): Correlation()
      (corr_activation): LeakyReLU(negative_slope=0.1, inplace)
      (conv3_1): ResBlock(
        (conv1): Conv2d(473, 256, kernel_size=(3, 3), stride=(1, 1), padding=(1, 1))
        (bn1): BatchNorm2d(256, eps=1e-05, momentum=0.1, affine=True, track_running_stats=True)
        (relu): ReLU(inplace)
        (conv2): Conv2d(256, 256, kernel_size=(3, 3), stride=(1, 1), padding=(1, 1))
        (bn2): BatchNorm2d(256, eps=1e-05, momentum=0.1, affine=True, track_running_stats=True)
        (shortcut): Sequential(
          (0): Conv2d(473, 256, kernel_size=(1, 1), stride=(1, 1))
          (1): BatchNorm2d(256, eps=1e-05, momentum=0.1, affine=True, track_running_stats=True)
        )
      )
      (conv4): ResBlock(
        (conv1): Conv2d(256, 512, kernel_size=(3, 3), stride=(2, 2), padding=(1, 1))
        (bn1): BatchNorm2d(512, eps=1e-05, momentum=0.1, affine=True, track_running_stats=True)
        (relu): ReLU(inplace)
        (conv2): Conv2d(512, 512, kernel_size=(3, 3), stride=(1, 1), padding=(1, 1))
        (bn2): BatchNorm2d(512, eps=1e-05, momentum=0.1, affine=True, track_running_stats=True)
        (shortcut): Sequential(
          (0): Conv2d(256, 512, kernel_size=(1, 1), stride=(2, 2))
          (1): BatchNorm2d(512, eps=1e-05, momentum=0.1, affine=True, track_running_stats=True)
        )
      )
      (conv4_1): ResBlock(
        (conv1): Conv2d(512, 512, kernel_size=(3, 3), stride=(1, 1), padding=(1, 1))
        (bn1): BatchNorm2d(512, eps=1e-05, momentum=0.1, affine=True, track_running_stats=True)
        (relu): ReLU(inplace)
        (conv2): Conv2d(512, 512, kernel_size=(3, 3), stride=(1, 1), padding=(1, 1))
        (bn2): BatchNorm2d(512, eps=1e-05, momentum=0.1, affine=True, track_running_stats=True)
      )
      (conv5): ResBlock(
        (conv1): Conv2d(512, 512, kernel_size=(3, 3), stride=(2, 2), padding=(1, 1))
        (bn1): BatchNorm2d(512, eps=1e-05, momentum=0.1, affine=True, track_running_stats=True)
        (relu): ReLU(inplace)
        (conv2): Conv2d(512, 512, kernel_size=(3, 3), stride=(1, 1), padding=(1, 1))
        (bn2): BatchNorm2d(512, eps=1e-05, momentum=0.1, affine=True, track_running_stats=True)
        (shortcut): Sequential(
          (0): Conv2d(512, 512, kernel_size=(1, 1), stride=(2, 2))
          (1): BatchNorm2d(512, eps=1e-05, momentum=0.1, affine=True, track_running_stats=True)
        )
      )
      (conv5_1): ResBlock(
        (conv1): Conv2d(512, 512, kernel_size=(3, 3), stride=(1, 1), padding=(1, 1))
        (bn1): BatchNorm2d(512, eps=1e-05, momentum=0.1, affine=True, track_running_stats=True)
        (relu): ReLU(inplace)
        (conv2): Conv2d(512, 512, kernel_size=(3, 3), stride=(1, 1), padding=(1, 1))
        (bn2): BatchNorm2d(512, eps=1e-05, momentum=0.1, affine=True, track_running_stats=True)
      )
      (conv6): ResBlock(
        (conv1): Conv2d(512, 1024, kernel_size=(3, 3), stride=(2, 2), padding=(1, 1))
        (bn1): BatchNorm2d(1024, eps=1e-05, momentum=0.1, affine=True, track_running_stats=True)
        (relu): ReLU(inplace)
        (conv2): Conv2d(1024, 1024, kernel_size=(3, 3), stride=(1, 1), padding=(1, 1))
        (bn2): BatchNorm2d(1024, eps=1e-05, momentum=0.1, affine=True, track_running_stats=True)
        (shortcut): Sequential(
          (0): Conv2d(512, 1024, kernel_size=(1, 1), stride=(2, 2))
          (1): BatchNorm2d(1024, eps=1e-05, momentum=0.1, affine=True, track_running_stats=True)
        )
      )
      (conv6_1): ResBlock(
        (conv1): Conv2d(1024, 1024, kernel_size=(3, 3), stride=(1, 1), padding=(1, 1))
        (bn1): BatchNorm2d(1024, eps=1e-05, momentum=0.1, affine=True, track_running_stats=True)
        (relu): ReLU(inplace)
        (conv2): Conv2d(1024, 1024, kernel_size=(3, 3), stride=(1, 1), padding=(1, 1))
        (bn2): BatchNorm2d(1024, eps=1e-05, momentum=0.1, affine=True, track_running_stats=True)
      )
      (pred_flow6): Conv2d(1024, 1, kernel_size=(3, 3), stride=(1, 1), padding=(1, 1), bias=False)
      (iconv5): ConvTranspose2d(1025, 512, kernel_size=(3, 3), stride=(1, 1), padding=(1, 1))
      (iconv4): ConvTranspose2d(769, 256, kernel_size=(3, 3), stride=(1, 1), padding=(1, 1))
      (iconv3): ConvTranspose2d(385, 128, kernel_size=(3, 3), stride=(1, 1), padding=(1, 1))
      (iconv2): ConvTranspose2d(193, 64, kernel_size=(3, 3), stride=(1, 1), padding=(1, 1))
      (iconv1): ConvTranspose2d(97, 32, kernel_size=(3, 3), stride=(1, 1), padding=(1, 1))
      (iconv0): ConvTranspose2d(20, 16, kernel_size=(3, 3), stride=(1, 1), padding=(1, 1))
      (upconv5): Sequential(
        (0): ConvTranspose2d(1024, 512, kernel_size=(4, 4), stride=(2, 2), padding=(1, 1), bias=False)
        (1): LeakyReLU(negative_slope=0.1, inplace)
      )
      (upflow6to5): ConvTranspose2d(1, 1, kernel_size=(4, 4), stride=(2, 2), padding=(1, 1), bias=False)
      (pred_flow5): Conv2d(512, 1, kernel_size=(3, 3), stride=(1, 1), padding=(1, 1), bias=False)
      (upconv4): Sequential(
        (0): ConvTranspose2d(512, 256, kernel_size=(4, 4), stride=(2, 2), padding=(1, 1), bias=False)
        (1): LeakyReLU(negative_slope=0.1, inplace)
      )
      (upflow5to4): ConvTranspose2d(1, 1, kernel_size=(4, 4), stride=(2, 2), padding=(1, 1), bias=False)
      (pred_flow4): Conv2d(256, 1, kernel_size=(3, 3), stride=(1, 1), padding=(1, 1), bias=False)
      (upconv3): Sequential(
        (0): ConvTranspose2d(256, 128, kernel_size=(4, 4), stride=(2, 2), padding=(1, 1), bias=False)
        (1): LeakyReLU(negative_slope=0.1, inplace)
      )
      (upflow4to3): ConvTranspose2d(1, 1, kernel_size=(4, 4), stride=(2, 2), padding=(1, 1), bias=False)
      (pred_flow3): Conv2d(128, 1, kernel_size=(3, 3), stride=(1, 1), padding=(1, 1), bias=False)
      (upconv2): Sequential(
        (0): ConvTranspose2d(128, 64, kernel_size=(4, 4), stride=(2, 2), padding=(1, 1), bias=False)
        (1): LeakyReLU(negative_slope=0.1, inplace)
      )
      (upflow3to2): ConvTranspose2d(1, 1, kernel_size=(4, 4), stride=(2, 2), padding=(1, 1), bias=False)
      (pred_flow2): Conv2d(64, 1, kernel_size=(3, 3), stride=(1, 1), padding=(1, 1), bias=False)
      (upconv1): Sequential(
        (0): ConvTranspose2d(64, 32, kernel_size=(4, 4), stride=(2, 2), padding=(1, 1), bias=False)
        (1): LeakyReLU(negative_slope=0.1, inplace)
      )
      (upflow2to1): ConvTranspose2d(1, 1, kernel_size=(4, 4), stride=(2, 2), padding=(1, 1), bias=False)
      (pred_flow1): Conv2d(32, 1, kernel_size=(3, 3), stride=(1, 1), padding=(1, 1), bias=False)
      (upconv0): Sequential(
        (0): ConvTranspose2d(32, 16, kernel_size=(4, 4), stride=(2, 2), padding=(1, 1), bias=False)
        (1): LeakyReLU(negative_slope=0.1, inplace)
      )
      (upflow1to0): ConvTranspose2d(1, 1, kernel_size=(4, 4), stride=(2, 2), padding=(1, 1), bias=False)
      (pred_flow0): Conv2d(16, 1, kernel_size=(3, 3), stride=(1, 1), padding=(1, 1), bias=False)
    )
    (channelnorm): ChannelNorm()
    (resample1): Resample2d()
    (dispnetres): DispNetRes(
      (conv1): Sequential(
        (0): Conv2d(11, 64, kernel_size=(7, 7), stride=(2, 2), padding=(3, 3))
        (1): LeakyReLU(negative_slope=0.1, inplace)
      )
      (conv2): ResBlock(
        (conv1): Conv2d(64, 128, kernel_size=(3, 3), stride=(2, 2), padding=(1, 1))
        (bn1): BatchNorm2d(128, eps=1e-05, momentum=0.1, affine=True, track_running_stats=True)
        (relu): ReLU(inplace)
        (conv2): Conv2d(128, 128, kernel_size=(3, 3), stride=(1, 1), padding=(1, 1))
        (bn2): BatchNorm2d(128, eps=1e-05, momentum=0.1, affine=True, track_running_stats=True)
        (shortcut): Sequential(
          (0): Conv2d(64, 128, kernel_size=(1, 1), stride=(2, 2))
          (1): BatchNorm2d(128, eps=1e-05, momentum=0.1, affine=True, track_running_stats=True)
        )
      )
      (conv3): ResBlock(
        (conv1): Conv2d(128, 256, kernel_size=(3, 3), stride=(2, 2), padding=(1, 1))
        (bn1): BatchNorm2d(256, eps=1e-05, momentum=0.1, affine=True, track_running_stats=True)
        (relu): ReLU(inplace)
        (conv2): Conv2d(256, 256, kernel_size=(3, 3), stride=(1, 1), padding=(1, 1))
        (bn2): BatchNorm2d(256, eps=1e-05, momentum=0.1, affine=True, track_running_stats=True)
        (shortcut): Sequential(
          (0): Conv2d(128, 256, kernel_size=(1, 1), stride=(2, 2))
          (1): BatchNorm2d(256, eps=1e-05, momentum=0.1, affine=True, track_running_stats=True)
        )
      )
      (conv3_1): ResBlock(
        (conv1): Conv2d(256, 256, kernel_size=(3, 3), stride=(1, 1), padding=(1, 1))
        (bn1): BatchNorm2d(256, eps=1e-05, momentum=0.1, affine=True, track_running_stats=True)
        (relu): ReLU(inplace)
        (conv2): Conv2d(256, 256, kernel_size=(3, 3), stride=(1, 1), padding=(1, 1))
        (bn2): BatchNorm2d(256, eps=1e-05, momentum=0.1, affine=True, track_running_stats=True)
      )
      (conv4): ResBlock(
        (conv1): Conv2d(256, 512, kernel_size=(3, 3), stride=(2, 2), padding=(1, 1))
        (bn1): BatchNorm2d(512, eps=1e-05, momentum=0.1, affine=True, track_running_stats=True)
        (relu): ReLU(inplace)
        (conv2): Conv2d(512, 512, kernel_size=(3, 3), stride=(1, 1), padding=(1, 1))
        (bn2): BatchNorm2d(512, eps=1e-05, momentum=0.1, affine=True, track_running_stats=True)
        (shortcut): Sequential(
          (0): Conv2d(256, 512, kernel_size=(1, 1), stride=(2, 2))
          (1): BatchNorm2d(512, eps=1e-05, momentum=0.1, affine=True, track_running_stats=True)
        )
      )
      (conv4_1): ResBlock(
        (conv1): Conv2d(512, 512, kernel_size=(3, 3), stride=(1, 1), padding=(1, 1))
        (bn1): BatchNorm2d(512, eps=1e-05, momentum=0.1, affine=True, track_running_stats=True)
        (relu): ReLU(inplace)
        (conv2): Conv2d(512, 512, kernel_size=(3, 3), stride=(1, 1), padding=(1, 1))
        (bn2): BatchNorm2d(512, eps=1e-05, momentum=0.1, affine=True, track_running_stats=True)
      )
      (conv5): ResBlock(
        (conv1): Conv2d(512, 512, kernel_size=(3, 3), stride=(2, 2), padding=(1, 1))
        (bn1): BatchNorm2d(512, eps=1e-05, momentum=0.1, affine=True, track_running_stats=True)
        (relu): ReLU(inplace)
        (conv2): Conv2d(512, 512, kernel_size=(3, 3), stride=(1, 1), padding=(1, 1))
        (bn2): BatchNorm2d(512, eps=1e-05, momentum=0.1, affine=True, track_running_stats=True)
        (shortcut): Sequential(
          (0): Conv2d(512, 512, kernel_size=(1, 1), stride=(2, 2))
          (1): BatchNorm2d(512, eps=1e-05, momentum=0.1, affine=True, track_running_stats=True)
        )
      )
      (conv5_1): ResBlock(
        (conv1): Conv2d(512, 512, kernel_size=(3, 3), stride=(1, 1), padding=(1, 1))
        (bn1): BatchNorm2d(512, eps=1e-05, momentum=0.1, affine=True, track_running_stats=True)
        (relu): ReLU(inplace)
        (conv2): Conv2d(512, 512, kernel_size=(3, 3), stride=(1, 1), padding=(1, 1))
        (bn2): BatchNorm2d(512, eps=1e-05, momentum=0.1, affine=True, track_running_stats=True)
      )
      (conv6): ResBlock(
        (conv1): Conv2d(512, 1024, kernel_size=(3, 3), stride=(2, 2), padding=(1, 1))
        (bn1): BatchNorm2d(1024, eps=1e-05, momentum=0.1, affine=True, track_running_stats=True)
        (relu): ReLU(inplace)
        (conv2): Conv2d(1024, 1024, kernel_size=(3, 3), stride=(1, 1), padding=(1, 1))
        (bn2): BatchNorm2d(1024, eps=1e-05, momentum=0.1, affine=True, track_running_stats=True)
        (shortcut): Sequential(
          (0): Conv2d(512, 1024, kernel_size=(1, 1), stride=(2, 2))
          (1): BatchNorm2d(1024, eps=1e-05, momentum=0.1, affine=True, track_running_stats=True)
        )
      )
      (conv6_1): ResBlock(
        (conv1): Conv2d(1024, 1024, kernel_size=(3, 3), stride=(1, 1), padding=(1, 1))
        (bn1): BatchNorm2d(1024, eps=1e-05, momentum=0.1, affine=True, track_running_stats=True)
        (relu): ReLU(inplace)
        (conv2): Conv2d(1024, 1024, kernel_size=(3, 3), stride=(1, 1), padding=(1, 1))
        (bn2): BatchNorm2d(1024, eps=1e-05, momentum=0.1, affine=True, track_running_stats=True)
      )
      (pred_res6): Conv2d(1024, 1, kernel_size=(3, 3), stride=(1, 1), padding=(1, 1), bias=False)
      (iconv5): ConvTranspose2d(1025, 512, kernel_size=(3, 3), stride=(1, 1), padding=(1, 1))
      (iconv4): ConvTranspose2d(769, 256, kernel_size=(3, 3), stride=(1, 1), padding=(1, 1))
      (iconv3): ConvTranspose2d(385, 128, kernel_size=(3, 3), stride=(1, 1), padding=(1, 1))
      (iconv2): ConvTranspose2d(193, 64, kernel_size=(3, 3), stride=(1, 1), padding=(1, 1))
      (iconv1): ConvTranspose2d(97, 32, kernel_size=(3, 3), stride=(1, 1), padding=(1, 1))
      (iconv0): ConvTranspose2d(20, 16, kernel_size=(3, 3), stride=(1, 1), padding=(1, 1))
      (upconv5): Sequential(
        (0): ConvTranspose2d(1024, 512, kernel_size=(4, 4), stride=(2, 2), padding=(1, 1), bias=False)
        (1): LeakyReLU(negative_slope=0.1, inplace)
      )
      (upflow6to5): ConvTranspose2d(1, 1, kernel_size=(4, 4), stride=(2, 2), padding=(1, 1), bias=False)
      (pred_res5): Conv2d(512, 1, kernel_size=(3, 3), stride=(1, 1), padding=(1, 1), bias=False)
      (upconv4): Sequential(
        (0): ConvTranspose2d(512, 256, kernel_size=(4, 4), stride=(2, 2), padding=(1, 1), bias=False)
        (1): LeakyReLU(negative_slope=0.1, inplace)
      )
      (upflow5to4): ConvTranspose2d(1, 1, kernel_size=(4, 4), stride=(2, 2), padding=(1, 1), bias=False)
      (pred_res4): Conv2d(256, 1, kernel_size=(3, 3), stride=(1, 1), padding=(1, 1), bias=False)
      (upconv3): Sequential(
        (0): ConvTranspose2d(256, 128, kernel_size=(4, 4), stride=(2, 2), padding=(1, 1), bias=False)
        (1): LeakyReLU(negative_slope=0.1, inplace)
      )
      (upflow4to3): ConvTranspose2d(1, 1, kernel_size=(4, 4), stride=(2, 2), padding=(1, 1), bias=False)
      (pred_res3): Conv2d(128, 1, kernel_size=(3, 3), stride=(1, 1), padding=(1, 1), bias=False)
      (upconv2): Sequential(
        (0): ConvTranspose2d(128, 64, kernel_size=(4, 4), stride=(2, 2), padding=(1, 1), bias=False)
        (1): LeakyReLU(negative_slope=0.1, inplace)
      )
      (upflow3to2): ConvTranspose2d(1, 1, kernel_size=(4, 4), stride=(2, 2), padding=(1, 1), bias=False)
      (pred_res2): Conv2d(64, 1, kernel_size=(3, 3), stride=(1, 1), padding=(1, 1), bias=False)
      (upconv1): Sequential(
        (0): ConvTranspose2d(64, 32, kernel_size=(4, 4), stride=(2, 2), padding=(1, 1), bias=False)
        (1): LeakyReLU(negative_slope=0.1, inplace)
      )
      (upflow2to1): ConvTranspose2d(1, 1, kernel_size=(4, 4), stride=(2, 2), padding=(1, 1), bias=False)
      (pred_res1): Conv2d(32, 1, kernel_size=(3, 3), stride=(1, 1), padding=(1, 1), bias=False)
      (upconv0): Sequential(
        (0): ConvTranspose2d(32, 16, kernel_size=(4, 4), stride=(2, 2), padding=(1, 1), bias=False)
        (1): LeakyReLU(negative_slope=0.1, inplace)
      )
      (upflow1to0): ConvTranspose2d(1, 1, kernel_size=(4, 4), stride=(2, 2), padding=(1, 1), bias=False)
      (pred_res0): Conv2d(16, 1, kernel_size=(3, 3), stride=(1, 1), padding=(1, 1), bias=False)
      (relu): ReLU()
    )
    (relu): ReLU()
  )
)"
epoch	time_stamp	train_loss	train_EPE	EPE	lr
Namespace(augment=0, batchSize=8, beta=0.999, cuda=True, datapath='/data2/virtual3', devices='0,1,2,3', domain_transfer=0, endEpoch=200, flowDiv=1.0, logFile='girl-ir-train-dispCSRes.log', lr=0.01, manualSeed=5431, model='', momentum=0.9, outf='./models/girl-ir-dispCSRes', showFreq=1, startEpoch=0, tdlist='real_sgm_release.list', trainlist='./lists/girl_with_ir2_TRAIN.list', vallist='./lists/girl_with_ir2_TEST.list', workers=8)
"DataParallel(
  (module): DispNetCSRes(
    (dispnetc): DispNetC(
      (conv1): Sequential(
        (0): Conv2d(3, 64, kernel_size=(7, 7), stride=(2, 2), padding=(3, 3))
        (1): LeakyReLU(negative_slope=0.1, inplace)
      )
      (conv2): ResBlock(
        (conv1): Conv2d(64, 128, kernel_size=(3, 3), stride=(2, 2), padding=(1, 1))
        (bn1): BatchNorm2d(128, eps=1e-05, momentum=0.1, affine=True, track_running_stats=True)
        (relu): ReLU(inplace)
        (conv2): Conv2d(128, 128, kernel_size=(3, 3), stride=(1, 1), padding=(1, 1))
        (bn2): BatchNorm2d(128, eps=1e-05, momentum=0.1, affine=True, track_running_stats=True)
        (shortcut): Sequential(
          (0): Conv2d(64, 128, kernel_size=(1, 1), stride=(2, 2))
          (1): BatchNorm2d(128, eps=1e-05, momentum=0.1, affine=True, track_running_stats=True)
        )
      )
      (conv3): ResBlock(
        (conv1): Conv2d(128, 256, kernel_size=(3, 3), stride=(2, 2), padding=(1, 1))
        (bn1): BatchNorm2d(256, eps=1e-05, momentum=0.1, affine=True, track_running_stats=True)
        (relu): ReLU(inplace)
        (conv2): Conv2d(256, 256, kernel_size=(3, 3), stride=(1, 1), padding=(1, 1))
        (bn2): BatchNorm2d(256, eps=1e-05, momentum=0.1, affine=True, track_running_stats=True)
        (shortcut): Sequential(
          (0): Conv2d(128, 256, kernel_size=(1, 1), stride=(2, 2))
          (1): BatchNorm2d(256, eps=1e-05, momentum=0.1, affine=True, track_running_stats=True)
        )
      )
      (conv_redir): ResBlock(
        (conv1): Conv2d(256, 32, kernel_size=(3, 3), stride=(1, 1), padding=(1, 1))
        (bn1): BatchNorm2d(32, eps=1e-05, momentum=0.1, affine=True, track_running_stats=True)
        (relu): ReLU(inplace)
        (conv2): Conv2d(32, 32, kernel_size=(3, 3), stride=(1, 1), padding=(1, 1))
        (bn2): BatchNorm2d(32, eps=1e-05, momentum=0.1, affine=True, track_running_stats=True)
        (shortcut): Sequential(
          (0): Conv2d(256, 32, kernel_size=(1, 1), stride=(1, 1))
          (1): BatchNorm2d(32, eps=1e-05, momentum=0.1, affine=True, track_running_stats=True)
        )
      )
      (corr): Correlation()
      (corr_activation): LeakyReLU(negative_slope=0.1, inplace)
      (conv3_1): ResBlock(
        (conv1): Conv2d(473, 256, kernel_size=(3, 3), stride=(1, 1), padding=(1, 1))
        (bn1): BatchNorm2d(256, eps=1e-05, momentum=0.1, affine=True, track_running_stats=True)
        (relu): ReLU(inplace)
        (conv2): Conv2d(256, 256, kernel_size=(3, 3), stride=(1, 1), padding=(1, 1))
        (bn2): BatchNorm2d(256, eps=1e-05, momentum=0.1, affine=True, track_running_stats=True)
        (shortcut): Sequential(
          (0): Conv2d(473, 256, kernel_size=(1, 1), stride=(1, 1))
          (1): BatchNorm2d(256, eps=1e-05, momentum=0.1, affine=True, track_running_stats=True)
        )
      )
      (conv4): ResBlock(
        (conv1): Conv2d(256, 512, kernel_size=(3, 3), stride=(2, 2), padding=(1, 1))
        (bn1): BatchNorm2d(512, eps=1e-05, momentum=0.1, affine=True, track_running_stats=True)
        (relu): ReLU(inplace)
        (conv2): Conv2d(512, 512, kernel_size=(3, 3), stride=(1, 1), padding=(1, 1))
        (bn2): BatchNorm2d(512, eps=1e-05, momentum=0.1, affine=True, track_running_stats=True)
        (shortcut): Sequential(
          (0): Conv2d(256, 512, kernel_size=(1, 1), stride=(2, 2))
          (1): BatchNorm2d(512, eps=1e-05, momentum=0.1, affine=True, track_running_stats=True)
        )
      )
      (conv4_1): ResBlock(
        (conv1): Conv2d(512, 512, kernel_size=(3, 3), stride=(1, 1), padding=(1, 1))
        (bn1): BatchNorm2d(512, eps=1e-05, momentum=0.1, affine=True, track_running_stats=True)
        (relu): ReLU(inplace)
        (conv2): Conv2d(512, 512, kernel_size=(3, 3), stride=(1, 1), padding=(1, 1))
        (bn2): BatchNorm2d(512, eps=1e-05, momentum=0.1, affine=True, track_running_stats=True)
      )
      (conv5): ResBlock(
        (conv1): Conv2d(512, 512, kernel_size=(3, 3), stride=(2, 2), padding=(1, 1))
        (bn1): BatchNorm2d(512, eps=1e-05, momentum=0.1, affine=True, track_running_stats=True)
        (relu): ReLU(inplace)
        (conv2): Conv2d(512, 512, kernel_size=(3, 3), stride=(1, 1), padding=(1, 1))
        (bn2): BatchNorm2d(512, eps=1e-05, momentum=0.1, affine=True, track_running_stats=True)
        (shortcut): Sequential(
          (0): Conv2d(512, 512, kernel_size=(1, 1), stride=(2, 2))
          (1): BatchNorm2d(512, eps=1e-05, momentum=0.1, affine=True, track_running_stats=True)
        )
      )
      (conv5_1): ResBlock(
        (conv1): Conv2d(512, 512, kernel_size=(3, 3), stride=(1, 1), padding=(1, 1))
        (bn1): BatchNorm2d(512, eps=1e-05, momentum=0.1, affine=True, track_running_stats=True)
        (relu): ReLU(inplace)
        (conv2): Conv2d(512, 512, kernel_size=(3, 3), stride=(1, 1), padding=(1, 1))
        (bn2): BatchNorm2d(512, eps=1e-05, momentum=0.1, affine=True, track_running_stats=True)
      )
      (conv6): ResBlock(
        (conv1): Conv2d(512, 1024, kernel_size=(3, 3), stride=(2, 2), padding=(1, 1))
        (bn1): BatchNorm2d(1024, eps=1e-05, momentum=0.1, affine=True, track_running_stats=True)
        (relu): ReLU(inplace)
        (conv2): Conv2d(1024, 1024, kernel_size=(3, 3), stride=(1, 1), padding=(1, 1))
        (bn2): BatchNorm2d(1024, eps=1e-05, momentum=0.1, affine=True, track_running_stats=True)
        (shortcut): Sequential(
          (0): Conv2d(512, 1024, kernel_size=(1, 1), stride=(2, 2))
          (1): BatchNorm2d(1024, eps=1e-05, momentum=0.1, affine=True, track_running_stats=True)
        )
      )
      (conv6_1): ResBlock(
        (conv1): Conv2d(1024, 1024, kernel_size=(3, 3), stride=(1, 1), padding=(1, 1))
        (bn1): BatchNorm2d(1024, eps=1e-05, momentum=0.1, affine=True, track_running_stats=True)
        (relu): ReLU(inplace)
        (conv2): Conv2d(1024, 1024, kernel_size=(3, 3), stride=(1, 1), padding=(1, 1))
        (bn2): BatchNorm2d(1024, eps=1e-05, momentum=0.1, affine=True, track_running_stats=True)
      )
      (pred_flow6): Conv2d(1024, 1, kernel_size=(3, 3), stride=(1, 1), padding=(1, 1), bias=False)
      (iconv5): ConvTranspose2d(1025, 512, kernel_size=(3, 3), stride=(1, 1), padding=(1, 1))
      (iconv4): ConvTranspose2d(769, 256, kernel_size=(3, 3), stride=(1, 1), padding=(1, 1))
      (iconv3): ConvTranspose2d(385, 128, kernel_size=(3, 3), stride=(1, 1), padding=(1, 1))
      (iconv2): ConvTranspose2d(193, 64, kernel_size=(3, 3), stride=(1, 1), padding=(1, 1))
      (iconv1): ConvTranspose2d(97, 32, kernel_size=(3, 3), stride=(1, 1), padding=(1, 1))
      (iconv0): ConvTranspose2d(20, 16, kernel_size=(3, 3), stride=(1, 1), padding=(1, 1))
      (upconv5): Sequential(
        (0): ConvTranspose2d(1024, 512, kernel_size=(4, 4), stride=(2, 2), padding=(1, 1), bias=False)
        (1): LeakyReLU(negative_slope=0.1, inplace)
      )
      (upflow6to5): ConvTranspose2d(1, 1, kernel_size=(4, 4), stride=(2, 2), padding=(1, 1), bias=False)
      (pred_flow5): Conv2d(512, 1, kernel_size=(3, 3), stride=(1, 1), padding=(1, 1), bias=False)
      (upconv4): Sequential(
        (0): ConvTranspose2d(512, 256, kernel_size=(4, 4), stride=(2, 2), padding=(1, 1), bias=False)
        (1): LeakyReLU(negative_slope=0.1, inplace)
      )
      (upflow5to4): ConvTranspose2d(1, 1, kernel_size=(4, 4), stride=(2, 2), padding=(1, 1), bias=False)
      (pred_flow4): Conv2d(256, 1, kernel_size=(3, 3), stride=(1, 1), padding=(1, 1), bias=False)
      (upconv3): Sequential(
        (0): ConvTranspose2d(256, 128, kernel_size=(4, 4), stride=(2, 2), padding=(1, 1), bias=False)
        (1): LeakyReLU(negative_slope=0.1, inplace)
      )
      (upflow4to3): ConvTranspose2d(1, 1, kernel_size=(4, 4), stride=(2, 2), padding=(1, 1), bias=False)
      (pred_flow3): Conv2d(128, 1, kernel_size=(3, 3), stride=(1, 1), padding=(1, 1), bias=False)
      (upconv2): Sequential(
        (0): ConvTranspose2d(128, 64, kernel_size=(4, 4), stride=(2, 2), padding=(1, 1), bias=False)
        (1): LeakyReLU(negative_slope=0.1, inplace)
      )
      (upflow3to2): ConvTranspose2d(1, 1, kernel_size=(4, 4), stride=(2, 2), padding=(1, 1), bias=False)
      (pred_flow2): Conv2d(64, 1, kernel_size=(3, 3), stride=(1, 1), padding=(1, 1), bias=False)
      (upconv1): Sequential(
        (0): ConvTranspose2d(64, 32, kernel_size=(4, 4), stride=(2, 2), padding=(1, 1), bias=False)
        (1): LeakyReLU(negative_slope=0.1, inplace)
      )
      (upflow2to1): ConvTranspose2d(1, 1, kernel_size=(4, 4), stride=(2, 2), padding=(1, 1), bias=False)
      (pred_flow1): Conv2d(32, 1, kernel_size=(3, 3), stride=(1, 1), padding=(1, 1), bias=False)
      (upconv0): Sequential(
        (0): ConvTranspose2d(32, 16, kernel_size=(4, 4), stride=(2, 2), padding=(1, 1), bias=False)
        (1): LeakyReLU(negative_slope=0.1, inplace)
      )
      (upflow1to0): ConvTranspose2d(1, 1, kernel_size=(4, 4), stride=(2, 2), padding=(1, 1), bias=False)
      (pred_flow0): Conv2d(16, 1, kernel_size=(3, 3), stride=(1, 1), padding=(1, 1), bias=False)
    )
    (channelnorm): ChannelNorm()
    (resample1): Resample2d()
    (dispnetres): DispNetRes(
      (conv1): Sequential(
        (0): Conv2d(11, 64, kernel_size=(7, 7), stride=(2, 2), padding=(3, 3))
        (1): LeakyReLU(negative_slope=0.1, inplace)
      )
      (conv2): ResBlock(
        (conv1): Conv2d(64, 128, kernel_size=(3, 3), stride=(2, 2), padding=(1, 1))
        (bn1): BatchNorm2d(128, eps=1e-05, momentum=0.1, affine=True, track_running_stats=True)
        (relu): ReLU(inplace)
        (conv2): Conv2d(128, 128, kernel_size=(3, 3), stride=(1, 1), padding=(1, 1))
        (bn2): BatchNorm2d(128, eps=1e-05, momentum=0.1, affine=True, track_running_stats=True)
        (shortcut): Sequential(
          (0): Conv2d(64, 128, kernel_size=(1, 1), stride=(2, 2))
          (1): BatchNorm2d(128, eps=1e-05, momentum=0.1, affine=True, track_running_stats=True)
        )
      )
      (conv3): ResBlock(
        (conv1): Conv2d(128, 256, kernel_size=(3, 3), stride=(2, 2), padding=(1, 1))
        (bn1): BatchNorm2d(256, eps=1e-05, momentum=0.1, affine=True, track_running_stats=True)
        (relu): ReLU(inplace)
        (conv2): Conv2d(256, 256, kernel_size=(3, 3), stride=(1, 1), padding=(1, 1))
        (bn2): BatchNorm2d(256, eps=1e-05, momentum=0.1, affine=True, track_running_stats=True)
        (shortcut): Sequential(
          (0): Conv2d(128, 256, kernel_size=(1, 1), stride=(2, 2))
          (1): BatchNorm2d(256, eps=1e-05, momentum=0.1, affine=True, track_running_stats=True)
        )
      )
      (conv3_1): ResBlock(
        (conv1): Conv2d(256, 256, kernel_size=(3, 3), stride=(1, 1), padding=(1, 1))
        (bn1): BatchNorm2d(256, eps=1e-05, momentum=0.1, affine=True, track_running_stats=True)
        (relu): ReLU(inplace)
        (conv2): Conv2d(256, 256, kernel_size=(3, 3), stride=(1, 1), padding=(1, 1))
        (bn2): BatchNorm2d(256, eps=1e-05, momentum=0.1, affine=True, track_running_stats=True)
      )
      (conv4): ResBlock(
        (conv1): Conv2d(256, 512, kernel_size=(3, 3), stride=(2, 2), padding=(1, 1))
        (bn1): BatchNorm2d(512, eps=1e-05, momentum=0.1, affine=True, track_running_stats=True)
        (relu): ReLU(inplace)
        (conv2): Conv2d(512, 512, kernel_size=(3, 3), stride=(1, 1), padding=(1, 1))
        (bn2): BatchNorm2d(512, eps=1e-05, momentum=0.1, affine=True, track_running_stats=True)
        (shortcut): Sequential(
          (0): Conv2d(256, 512, kernel_size=(1, 1), stride=(2, 2))
          (1): BatchNorm2d(512, eps=1e-05, momentum=0.1, affine=True, track_running_stats=True)
        )
      )
      (conv4_1): ResBlock(
        (conv1): Conv2d(512, 512, kernel_size=(3, 3), stride=(1, 1), padding=(1, 1))
        (bn1): BatchNorm2d(512, eps=1e-05, momentum=0.1, affine=True, track_running_stats=True)
        (relu): ReLU(inplace)
        (conv2): Conv2d(512, 512, kernel_size=(3, 3), stride=(1, 1), padding=(1, 1))
        (bn2): BatchNorm2d(512, eps=1e-05, momentum=0.1, affine=True, track_running_stats=True)
      )
      (conv5): ResBlock(
        (conv1): Conv2d(512, 512, kernel_size=(3, 3), stride=(2, 2), padding=(1, 1))
        (bn1): BatchNorm2d(512, eps=1e-05, momentum=0.1, affine=True, track_running_stats=True)
        (relu): ReLU(inplace)
        (conv2): Conv2d(512, 512, kernel_size=(3, 3), stride=(1, 1), padding=(1, 1))
        (bn2): BatchNorm2d(512, eps=1e-05, momentum=0.1, affine=True, track_running_stats=True)
        (shortcut): Sequential(
          (0): Conv2d(512, 512, kernel_size=(1, 1), stride=(2, 2))
          (1): BatchNorm2d(512, eps=1e-05, momentum=0.1, affine=True, track_running_stats=True)
        )
      )
      (conv5_1): ResBlock(
        (conv1): Conv2d(512, 512, kernel_size=(3, 3), stride=(1, 1), padding=(1, 1))
        (bn1): BatchNorm2d(512, eps=1e-05, momentum=0.1, affine=True, track_running_stats=True)
        (relu): ReLU(inplace)
        (conv2): Conv2d(512, 512, kernel_size=(3, 3), stride=(1, 1), padding=(1, 1))
        (bn2): BatchNorm2d(512, eps=1e-05, momentum=0.1, affine=True, track_running_stats=True)
      )
      (conv6): ResBlock(
        (conv1): Conv2d(512, 1024, kernel_size=(3, 3), stride=(2, 2), padding=(1, 1))
        (bn1): BatchNorm2d(1024, eps=1e-05, momentum=0.1, affine=True, track_running_stats=True)
        (relu): ReLU(inplace)
        (conv2): Conv2d(1024, 1024, kernel_size=(3, 3), stride=(1, 1), padding=(1, 1))
        (bn2): BatchNorm2d(1024, eps=1e-05, momentum=0.1, affine=True, track_running_stats=True)
        (shortcut): Sequential(
          (0): Conv2d(512, 1024, kernel_size=(1, 1), stride=(2, 2))
          (1): BatchNorm2d(1024, eps=1e-05, momentum=0.1, affine=True, track_running_stats=True)
        )
      )
      (conv6_1): ResBlock(
        (conv1): Conv2d(1024, 1024, kernel_size=(3, 3), stride=(1, 1), padding=(1, 1))
        (bn1): BatchNorm2d(1024, eps=1e-05, momentum=0.1, affine=True, track_running_stats=True)
        (relu): ReLU(inplace)
        (conv2): Conv2d(1024, 1024, kernel_size=(3, 3), stride=(1, 1), padding=(1, 1))
        (bn2): BatchNorm2d(1024, eps=1e-05, momentum=0.1, affine=True, track_running_stats=True)
      )
      (pred_res6): Conv2d(1024, 1, kernel_size=(3, 3), stride=(1, 1), padding=(1, 1), bias=False)
      (iconv5): ConvTranspose2d(1025, 512, kernel_size=(3, 3), stride=(1, 1), padding=(1, 1))
      (iconv4): ConvTranspose2d(769, 256, kernel_size=(3, 3), stride=(1, 1), padding=(1, 1))
      (iconv3): ConvTranspose2d(385, 128, kernel_size=(3, 3), stride=(1, 1), padding=(1, 1))
      (iconv2): ConvTranspose2d(193, 64, kernel_size=(3, 3), stride=(1, 1), padding=(1, 1))
      (iconv1): ConvTranspose2d(97, 32, kernel_size=(3, 3), stride=(1, 1), padding=(1, 1))
      (iconv0): ConvTranspose2d(20, 16, kernel_size=(3, 3), stride=(1, 1), padding=(1, 1))
      (upconv5): Sequential(
        (0): ConvTranspose2d(1024, 512, kernel_size=(4, 4), stride=(2, 2), padding=(1, 1), bias=False)
        (1): LeakyReLU(negative_slope=0.1, inplace)
      )
      (upflow6to5): ConvTranspose2d(1, 1, kernel_size=(4, 4), stride=(2, 2), padding=(1, 1), bias=False)
      (pred_res5): Conv2d(512, 1, kernel_size=(3, 3), stride=(1, 1), padding=(1, 1), bias=False)
      (upconv4): Sequential(
        (0): ConvTranspose2d(512, 256, kernel_size=(4, 4), stride=(2, 2), padding=(1, 1), bias=False)
        (1): LeakyReLU(negative_slope=0.1, inplace)
      )
      (upflow5to4): ConvTranspose2d(1, 1, kernel_size=(4, 4), stride=(2, 2), padding=(1, 1), bias=False)
      (pred_res4): Conv2d(256, 1, kernel_size=(3, 3), stride=(1, 1), padding=(1, 1), bias=False)
      (upconv3): Sequential(
        (0): ConvTranspose2d(256, 128, kernel_size=(4, 4), stride=(2, 2), padding=(1, 1), bias=False)
        (1): LeakyReLU(negative_slope=0.1, inplace)
      )
      (upflow4to3): ConvTranspose2d(1, 1, kernel_size=(4, 4), stride=(2, 2), padding=(1, 1), bias=False)
      (pred_res3): Conv2d(128, 1, kernel_size=(3, 3), stride=(1, 1), padding=(1, 1), bias=False)
      (upconv2): Sequential(
        (0): ConvTranspose2d(128, 64, kernel_size=(4, 4), stride=(2, 2), padding=(1, 1), bias=False)
        (1): LeakyReLU(negative_slope=0.1, inplace)
      )
      (upflow3to2): ConvTranspose2d(1, 1, kernel_size=(4, 4), stride=(2, 2), padding=(1, 1), bias=False)
      (pred_res2): Conv2d(64, 1, kernel_size=(3, 3), stride=(1, 1), padding=(1, 1), bias=False)
      (upconv1): Sequential(
        (0): ConvTranspose2d(64, 32, kernel_size=(4, 4), stride=(2, 2), padding=(1, 1), bias=False)
        (1): LeakyReLU(negative_slope=0.1, inplace)
      )
      (upflow2to1): ConvTranspose2d(1, 1, kernel_size=(4, 4), stride=(2, 2), padding=(1, 1), bias=False)
      (pred_res1): Conv2d(32, 1, kernel_size=(3, 3), stride=(1, 1), padding=(1, 1), bias=False)
      (upconv0): Sequential(
        (0): ConvTranspose2d(32, 16, kernel_size=(4, 4), stride=(2, 2), padding=(1, 1), bias=False)
        (1): LeakyReLU(negative_slope=0.1, inplace)
      )
      (upflow1to0): ConvTranspose2d(1, 1, kernel_size=(4, 4), stride=(2, 2), padding=(1, 1), bias=False)
      (pred_res0): Conv2d(16, 1, kernel_size=(3, 3), stride=(1, 1), padding=(1, 1), bias=False)
      (relu): ReLU()
    )
    (relu): ReLU()
  )
)"
epoch	time_stamp	train_loss	train_EPE	EPE	lr
Namespace(augment=0, batchSize=8, beta=0.999, cuda=True, datapath='/data2/virtual3', devices='0,1,2,3', domain_transfer=0, endEpoch=200, flowDiv=1.0, logFile='girl-ir-train-dispCSRes.log', lr=0.01, manualSeed=5105, model='', momentum=0.9, outf='./models/girl-ir-dispCSRes', showFreq=1, startEpoch=0, tdlist='real_sgm_release.list', trainlist='./lists/girl_with_ir2_TRAIN.list', vallist='./lists/girl_with_ir2_TEST.list', workers=8)
"DataParallel(
  (module): DispNetCSRes(
    (dispnetc): DispNetC(
      (conv1): Sequential(
        (0): Conv2d(3, 64, kernel_size=(7, 7), stride=(2, 2), padding=(3, 3))
        (1): LeakyReLU(negative_slope=0.1, inplace)
      )
      (conv2): ResBlock(
        (conv1): Conv2d(64, 128, kernel_size=(3, 3), stride=(2, 2), padding=(1, 1))
        (bn1): BatchNorm2d(128, eps=1e-05, momentum=0.1, affine=True, track_running_stats=True)
        (relu): ReLU(inplace)
        (conv2): Conv2d(128, 128, kernel_size=(3, 3), stride=(1, 1), padding=(1, 1))
        (bn2): BatchNorm2d(128, eps=1e-05, momentum=0.1, affine=True, track_running_stats=True)
        (shortcut): Sequential(
          (0): Conv2d(64, 128, kernel_size=(1, 1), stride=(2, 2))
          (1): BatchNorm2d(128, eps=1e-05, momentum=0.1, affine=True, track_running_stats=True)
        )
      )
      (conv3): ResBlock(
        (conv1): Conv2d(128, 256, kernel_size=(3, 3), stride=(2, 2), padding=(1, 1))
        (bn1): BatchNorm2d(256, eps=1e-05, momentum=0.1, affine=True, track_running_stats=True)
        (relu): ReLU(inplace)
        (conv2): Conv2d(256, 256, kernel_size=(3, 3), stride=(1, 1), padding=(1, 1))
        (bn2): BatchNorm2d(256, eps=1e-05, momentum=0.1, affine=True, track_running_stats=True)
        (shortcut): Sequential(
          (0): Conv2d(128, 256, kernel_size=(1, 1), stride=(2, 2))
          (1): BatchNorm2d(256, eps=1e-05, momentum=0.1, affine=True, track_running_stats=True)
        )
      )
      (conv_redir): ResBlock(
        (conv1): Conv2d(256, 32, kernel_size=(3, 3), stride=(1, 1), padding=(1, 1))
        (bn1): BatchNorm2d(32, eps=1e-05, momentum=0.1, affine=True, track_running_stats=True)
        (relu): ReLU(inplace)
        (conv2): Conv2d(32, 32, kernel_size=(3, 3), stride=(1, 1), padding=(1, 1))
        (bn2): BatchNorm2d(32, eps=1e-05, momentum=0.1, affine=True, track_running_stats=True)
        (shortcut): Sequential(
          (0): Conv2d(256, 32, kernel_size=(1, 1), stride=(1, 1))
          (1): BatchNorm2d(32, eps=1e-05, momentum=0.1, affine=True, track_running_stats=True)
        )
      )
      (corr): Correlation()
      (corr_activation): LeakyReLU(negative_slope=0.1, inplace)
      (conv3_1): ResBlock(
        (conv1): Conv2d(473, 256, kernel_size=(3, 3), stride=(1, 1), padding=(1, 1))
        (bn1): BatchNorm2d(256, eps=1e-05, momentum=0.1, affine=True, track_running_stats=True)
        (relu): ReLU(inplace)
        (conv2): Conv2d(256, 256, kernel_size=(3, 3), stride=(1, 1), padding=(1, 1))
        (bn2): BatchNorm2d(256, eps=1e-05, momentum=0.1, affine=True, track_running_stats=True)
        (shortcut): Sequential(
          (0): Conv2d(473, 256, kernel_size=(1, 1), stride=(1, 1))
          (1): BatchNorm2d(256, eps=1e-05, momentum=0.1, affine=True, track_running_stats=True)
        )
      )
      (conv4): ResBlock(
        (conv1): Conv2d(256, 512, kernel_size=(3, 3), stride=(2, 2), padding=(1, 1))
        (bn1): BatchNorm2d(512, eps=1e-05, momentum=0.1, affine=True, track_running_stats=True)
        (relu): ReLU(inplace)
        (conv2): Conv2d(512, 512, kernel_size=(3, 3), stride=(1, 1), padding=(1, 1))
        (bn2): BatchNorm2d(512, eps=1e-05, momentum=0.1, affine=True, track_running_stats=True)
        (shortcut): Sequential(
          (0): Conv2d(256, 512, kernel_size=(1, 1), stride=(2, 2))
          (1): BatchNorm2d(512, eps=1e-05, momentum=0.1, affine=True, track_running_stats=True)
        )
      )
      (conv4_1): ResBlock(
        (conv1): Conv2d(512, 512, kernel_size=(3, 3), stride=(1, 1), padding=(1, 1))
        (bn1): BatchNorm2d(512, eps=1e-05, momentum=0.1, affine=True, track_running_stats=True)
        (relu): ReLU(inplace)
        (conv2): Conv2d(512, 512, kernel_size=(3, 3), stride=(1, 1), padding=(1, 1))
        (bn2): BatchNorm2d(512, eps=1e-05, momentum=0.1, affine=True, track_running_stats=True)
      )
      (conv5): ResBlock(
        (conv1): Conv2d(512, 512, kernel_size=(3, 3), stride=(2, 2), padding=(1, 1))
        (bn1): BatchNorm2d(512, eps=1e-05, momentum=0.1, affine=True, track_running_stats=True)
        (relu): ReLU(inplace)
        (conv2): Conv2d(512, 512, kernel_size=(3, 3), stride=(1, 1), padding=(1, 1))
        (bn2): BatchNorm2d(512, eps=1e-05, momentum=0.1, affine=True, track_running_stats=True)
        (shortcut): Sequential(
          (0): Conv2d(512, 512, kernel_size=(1, 1), stride=(2, 2))
          (1): BatchNorm2d(512, eps=1e-05, momentum=0.1, affine=True, track_running_stats=True)
        )
      )
      (conv5_1): ResBlock(
        (conv1): Conv2d(512, 512, kernel_size=(3, 3), stride=(1, 1), padding=(1, 1))
        (bn1): BatchNorm2d(512, eps=1e-05, momentum=0.1, affine=True, track_running_stats=True)
        (relu): ReLU(inplace)
        (conv2): Conv2d(512, 512, kernel_size=(3, 3), stride=(1, 1), padding=(1, 1))
        (bn2): BatchNorm2d(512, eps=1e-05, momentum=0.1, affine=True, track_running_stats=True)
      )
      (conv6): ResBlock(
        (conv1): Conv2d(512, 1024, kernel_size=(3, 3), stride=(2, 2), padding=(1, 1))
        (bn1): BatchNorm2d(1024, eps=1e-05, momentum=0.1, affine=True, track_running_stats=True)
        (relu): ReLU(inplace)
        (conv2): Conv2d(1024, 1024, kernel_size=(3, 3), stride=(1, 1), padding=(1, 1))
        (bn2): BatchNorm2d(1024, eps=1e-05, momentum=0.1, affine=True, track_running_stats=True)
        (shortcut): Sequential(
          (0): Conv2d(512, 1024, kernel_size=(1, 1), stride=(2, 2))
          (1): BatchNorm2d(1024, eps=1e-05, momentum=0.1, affine=True, track_running_stats=True)
        )
      )
      (conv6_1): ResBlock(
        (conv1): Conv2d(1024, 1024, kernel_size=(3, 3), stride=(1, 1), padding=(1, 1))
        (bn1): BatchNorm2d(1024, eps=1e-05, momentum=0.1, affine=True, track_running_stats=True)
        (relu): ReLU(inplace)
        (conv2): Conv2d(1024, 1024, kernel_size=(3, 3), stride=(1, 1), padding=(1, 1))
        (bn2): BatchNorm2d(1024, eps=1e-05, momentum=0.1, affine=True, track_running_stats=True)
      )
      (pred_flow6): Conv2d(1024, 1, kernel_size=(3, 3), stride=(1, 1), padding=(1, 1), bias=False)
      (iconv5): ConvTranspose2d(1025, 512, kernel_size=(3, 3), stride=(1, 1), padding=(1, 1))
      (iconv4): ConvTranspose2d(769, 256, kernel_size=(3, 3), stride=(1, 1), padding=(1, 1))
      (iconv3): ConvTranspose2d(385, 128, kernel_size=(3, 3), stride=(1, 1), padding=(1, 1))
      (iconv2): ConvTranspose2d(193, 64, kernel_size=(3, 3), stride=(1, 1), padding=(1, 1))
      (iconv1): ConvTranspose2d(97, 32, kernel_size=(3, 3), stride=(1, 1), padding=(1, 1))
      (iconv0): ConvTranspose2d(20, 16, kernel_size=(3, 3), stride=(1, 1), padding=(1, 1))
      (upconv5): Sequential(
        (0): ConvTranspose2d(1024, 512, kernel_size=(4, 4), stride=(2, 2), padding=(1, 1), bias=False)
        (1): LeakyReLU(negative_slope=0.1, inplace)
      )
      (upflow6to5): ConvTranspose2d(1, 1, kernel_size=(4, 4), stride=(2, 2), padding=(1, 1), bias=False)
      (pred_flow5): Conv2d(512, 1, kernel_size=(3, 3), stride=(1, 1), padding=(1, 1), bias=False)
      (upconv4): Sequential(
        (0): ConvTranspose2d(512, 256, kernel_size=(4, 4), stride=(2, 2), padding=(1, 1), bias=False)
        (1): LeakyReLU(negative_slope=0.1, inplace)
      )
      (upflow5to4): ConvTranspose2d(1, 1, kernel_size=(4, 4), stride=(2, 2), padding=(1, 1), bias=False)
      (pred_flow4): Conv2d(256, 1, kernel_size=(3, 3), stride=(1, 1), padding=(1, 1), bias=False)
      (upconv3): Sequential(
        (0): ConvTranspose2d(256, 128, kernel_size=(4, 4), stride=(2, 2), padding=(1, 1), bias=False)
        (1): LeakyReLU(negative_slope=0.1, inplace)
      )
      (upflow4to3): ConvTranspose2d(1, 1, kernel_size=(4, 4), stride=(2, 2), padding=(1, 1), bias=False)
      (pred_flow3): Conv2d(128, 1, kernel_size=(3, 3), stride=(1, 1), padding=(1, 1), bias=False)
      (upconv2): Sequential(
…
        (bn1): BatchNorm2d(512, eps=1e-05, momentum=0.1, affine=True, track_running_stats=True)
        (relu): ReLU(inplace)
        (conv2): Conv2d(512, 512, kernel_size=(3, 3), stride=(1, 1), padding=(1, 1))
        (bn2): BatchNorm2d(512, eps=1e-05, momentum=0.1, affine=True, track_running_stats=True)
        (shortcut): Sequential(
          (0): Conv2d(256, 512, kernel_size=(1, 1), stride=(2, 2))
          (1): BatchNorm2d(512, eps=1e-05, momentum=0.1, affine=True, track_running_stats=True)
        )
      )
      (conv4_1): ResBlock(
        (conv1): Conv2d(512, 512, kernel_size=(3, 3), stride=(1, 1), padding=(1, 1))
        (bn1): BatchNorm2d(512, eps=1e-05, momentum=0.1, affine=True, track_running_stats=True)
        (relu): ReLU(inplace)
        (conv2): Conv2d(512, 512, kernel_size=(3, 3), stride=(1, 1), padding=(1, 1))
        (bn2): BatchNorm2d(512, eps=1e-05, momentum=0.1, affine=True, track_running_stats=True)
      )
      (conv5): ResBlock(
        (conv1): Conv2d(512, 512, kernel_size=(3, 3), stride=(2, 2), padding=(1, 1))
        (bn1): BatchNorm2d(512, eps=1e-05, momentum=0.1, affine=True, track_running_stats=True)
        (relu): ReLU(inplace)
        (conv2): Conv2d(512, 512, kernel_size=(3, 3), stride=(1, 1), padding=(1, 1))
        (bn2): BatchNorm2d(512, eps=1e-05, momentum=0.1, affine=True, track_running_stats=True)
        (shortcut): Sequential(
          (0): Conv2d(512, 512, kernel_size=(1, 1), stride=(2, 2))
          (1): BatchNorm2d(512, eps=1e-05, momentum=0.1, affine=True, track_running_stats=True)
        )
      )
      (conv5_1): ResBlock(
        (conv1): Conv2d(512, 512, kernel_size=(3, 3), stride=(1, 1), padding=(1, 1))
        (bn1): BatchNorm2d(512, eps=1e-05, momentum=0.1, affine=True, track_running_stats=True)
        (relu): ReLU(inplace)
        (conv2): Conv2d(512, 512, kernel_size=(3, 3), stride=(1, 1), padding=(1, 1))
        (bn2): BatchNorm2d(512, eps=1e-05, momentum=0.1, affine=True, track_running_stats=True)
      )
      (conv6): ResBlock(
        (conv1): Conv2d(512, 1024, kernel_size=(3, 3), stride=(2, 2), padding=(1, 1))
        (bn1): BatchNorm2d(1024, eps=1e-05, momentum=0.1, affine=True, track_running_stats=True)
        (relu): ReLU(inplace)
        (conv2): Conv2d(1024, 1024, kernel_size=(3, 3), stride=(1, 1), padding=(1, 1))
        (bn2): BatchNorm2d(1024, eps=1e-05, momentum=0.1, affine=True, track_running_stats=True)
        (shortcut): Sequential(
          (0): Conv2d(512, 1024, kernel_size=(1, 1), stride=(2, 2))
          (1): BatchNorm2d(1024, eps=1e-05, momentum=0.1, affine=True, track_running_stats=True)
        )
      )
      (conv6_1): ResBlock(
        (conv1): Conv2d(1024, 1024, kernel_size=(3, 3), stride=(1, 1), padding=(1, 1))
        (bn1): BatchNorm2d(1024, eps=1e-05, momentum=0.1, affine=True, track_running_stats=True)
        (relu): ReLU(inplace)
        (conv2): Conv2d(1024, 1024, kernel_size=(3, 3), stride=(1, 1), padding=(1, 1))
        (bn2): BatchNorm2d(1024, eps=1e-05, momentum=0.1, affine=True, track_running_stats=True)
      )
      (pred_flow6): Conv2d(1024, 1, kernel_size=(3, 3), stride=(1, 1), padding=(1, 1), bias=False)
      (iconv5): ConvTranspose2d(1025, 512, kernel_size=(3, 3), stride=(1, 1), padding=(1, 1))
      (iconv4): ConvTranspose2d(769, 256, kernel_size=(3, 3), stride=(1, 1), padding=(1, 1))
      (iconv3): ConvTranspose2d(385, 128, kernel_size=(3, 3), stride=(1, 1), padding=(1, 1))
      (iconv2): ConvTranspose2d(193, 64, kernel_size=(3, 3), stride=(1, 1), padding=(1, 1))
      (iconv1): ConvTranspose2d(97, 32, kernel_size=(3, 3), stride=(1, 1), padding=(1, 1))
      (iconv0): ConvTranspose2d(21, 16, kernel_size=(3, 3), stride=(1, 1), padding=(1, 1))
      (upconv5): Sequential(
        (0): ConvTranspose2d(1024, 512, kernel_size=(4, 4), stride=(2, 2), padding=(1, 1), bias=False)
        (1): LeakyReLU(negative_slope=0.1, inplace)
      )
      (upflow6to5): ConvTranspose2d(1, 1, kernel_size=(4, 4), stride=(2, 2), padding=(1, 1), bias=False)
      (pred_flow5): Conv2d(512, 1, kernel_size=(3, 3), stride=(1, 1), padding=(1, 1), bias=False)
      (upconv4): Sequential(
        (0): ConvTranspose2d(512, 256, kernel_size=(4, 4), stride=(2, 2), padding=(1, 1), bias=False)
        (1): LeakyReLU(negative_slope=0.1, inplace)
      )
      (upflow5to4): ConvTranspose2d(1, 1, kernel_size=(4, 4), stride=(2, 2), padding=(1, 1), bias=False)
      (pred_flow4): Conv2d(256, 1, kernel_size=(3, 3), stride=(1, 1), padding=(1, 1), bias=False)
      (upconv3): Sequential(
        (0): ConvTranspose2d(256, 128, kernel_size=(4, 4), stride=(2, 2), padding=(1, 1), bias=False)
        (1): LeakyReLU(negative_slope=0.1, inplace)
      )
      (upflow4to3): ConvTranspose2d(1, 1, kernel_size=(4, 4), stride=(2, 2), padding=(1, 1), bias=False)
      (pred_flow3): Conv2d(128, 1, kernel_size=(3, 3), stride=(1, 1), padding=(1, 1), bias=False)
      (upconv2): Sequential(
        (0): ConvTranspose2d(128, 64, kernel_size=(4, 4), stride=(2, 2), padding=(1, 1), bias=False)
        (1): LeakyReLU(negative_slope=0.1, inplace)
      )
      (upflow3to2): ConvTranspose2d(1, 1, kernel_size=(4, 4), stride=(2, 2), padding=(1, 1), bias=False)
      (pred_flow2): Conv2d(64, 1, kernel_size=(3, 3), stride=(1, 1), padding=(1, 1), bias=False)
      (upconv1): Sequential(
        (0): ConvTranspose2d(64, 32, kernel_size=(4, 4), stride=(2, 2), padding=(1, 1), bias=False)
        (1): LeakyReLU(negative_slope=0.1, inplace)
      )
      (upflow2to1): ConvTranspose2d(1, 1, kernel_size=(4, 4), stride=(2, 2), padding=(1, 1), bias=False)
      (pred_flow1): Conv2d(32, 1, kernel_size=(3, 3), stride=(1, 1), padding=(1, 1), bias=False)
      (upconv0): Sequential(
        (0): ConvTranspose2d(32, 16, kernel_size=(4, 4), stride=(2, 2), padding=(1, 1), bias=False)
        (1): LeakyReLU(negative_slope=0.1, inplace)
      )
      (upflow1to0): ConvTranspose2d(1, 1, kernel_size=(4, 4), stride=(2, 2), padding=(1, 1), bias=False)
      (pred_flow0): Conv2d(16, 1, kernel_size=(3, 3), stride=(1, 1), padding=(1, 1), bias=False)
    )
    (channelnorm): ChannelNorm()
    (resample1): Resample2d()
    (dispnetres): DispNetRes(
      (conv1): Sequential(
        (0): Conv2d(14, 64, kernel_size=(7, 7), stride=(2, 2), padding=(3, 3))
        (1): LeakyReLU(negative_slope=0.1, inplace)
      )
      (conv2): ResBlock(
        (conv1): Conv2d(64, 128, kernel_size=(3, 3), stride=(2, 2), padding=(1, 1))
        (bn1): BatchNorm2d(128, eps=1e-05, momentum=0.1, affine=True, track_running_stats=True)
        (relu): ReLU(inplace)
        (conv2): Conv2d(128, 128, kernel_size=(3, 3), stride=(1, 1), padding=(1, 1))
        (bn2): BatchNorm2d(128, eps=1e-05, momentum=0.1, affine=True, track_running_stats=True)
        (shortcut): Sequential(
          (0): Conv2d(64, 128, kernel_size=(1, 1), stride=(2, 2))
          (1): BatchNorm2d(128, eps=1e-05, momentum=0.1, affine=True, track_running_stats=True)
        )
      )
      (conv3): ResBlock(
        (conv1): Conv2d(128, 256, kernel_size=(3, 3), stride=(2, 2), padding=(1, 1))
        (bn1): BatchNorm2d(256, eps=1e-05, momentum=0.1, affine=True, track_running_stats=True)
        (relu): ReLU(inplace)
        (conv2): Conv2d(256, 256, kernel_size=(3, 3), stride=(1, 1), padding=(1, 1))
        (bn2): BatchNorm2d(256, eps=1e-05, momentum=0.1, affine=True, track_running_stats=True)
        (shortcut): Sequential(
          (0): Conv2d(128, 256, kernel_size=(1, 1), stride=(2, 2))
          (1): BatchNorm2d(256, eps=1e-05, momentum=0.1, affine=True, track_running_stats=True)
        )
      )
      (conv3_1): ResBlock(
        (conv1): Conv2d(256, 256, kernel_size=(3, 3), stride=(1, 1), padding=(1, 1))
        (bn1): BatchNorm2d(256, eps=1e-05, momentum=0.1, affine=True, track_running_stats=True)
        (relu): ReLU(inplace)
        (conv2): Conv2d(256, 256, kernel_size=(3, 3), stride=(1, 1), padding=(1, 1))
        (bn2): BatchNorm2d(256, eps=1e-05, momentum=0.1, affine=True, track_running_stats=True)
      )
      (conv4): ResBlock(
        (conv1): Conv2d(256, 512, kernel_size=(3, 3), stride=(2, 2), padding=(1, 1))
        (bn1): BatchNorm2d(512, eps=1e-05, momentum=0.1, affine=True, track_running_stats=True)
        (relu): ReLU(inplace)
        (conv2): Conv2d(512, 512, kernel_size=(3, 3), stride=(1, 1), padding=(1, 1))
        (bn2): BatchNorm2d(512, eps=1e-05, momentum=0.1, affine=True, track_running_stats=True)
        (shortcut): Sequential(
          (0): Conv2d(256, 512, kernel_size=(1, 1), stride=(2, 2))
          (1): BatchNorm2d(512, eps=1e-05, momentum=0.1, affine=True, track_running_stats=True)
        )
      )
      (conv4_1): ResBlock(
        (conv1): Conv2d(512, 512, kernel_size=(3, 3), stride=(1, 1), padding=(1, 1))
        (bn1): BatchNorm2d(512, eps=1e-05, momentum=0.1, affine=True, track_running_stats=True)
        (relu): ReLU(inplace)
        (conv2): Conv2d(512, 512, kernel_size=(3, 3), stride=(1, 1), padding=(1, 1))
        (bn2): BatchNorm2d(512, eps=1e-05, momentum=0.1, affine=True, track_running_stats=True)
      )
      (conv5): ResBlock(
        (conv1): Conv2d(512, 512, kernel_size=(3, 3), stride=(2, 2), padding=(1, 1))
        (bn1): BatchNorm2d(512, eps=1e-05, momentum=0.1, affine=True, track_running_stats=True)
        (relu): ReLU(inplace)
        (conv2): Conv2d(512, 512, kernel_size=(3, 3), stride=(1, 1), padding=(1, 1))
        (bn2): BatchNorm2d(512, eps=1e-05, momentum=0.1, affine=True, track_running_stats=True)
        (shortcut): Sequential(
          (0): Conv2d(512, 512, kernel_size=(1, 1), stride=(2, 2))
          (1): BatchNorm2d(512, eps=1e-05, momentum=0.1, affine=True, track_running_stats=True)
        )
      )
      (conv5_1): ResBlock(
        (conv1): Conv2d(512, 512, kernel_size=(3, 3), stride=(1, 1), padding=(1, 1))
        (bn1): BatchNorm2d(512, eps=1e-05, momentum=0.1, affine=True, track_running_stats=True)
        (relu): ReLU(inplace)
        (conv2): Conv2d(512, 512, kernel_size=(3, 3), stride=(1, 1), padding=(1, 1))
        (bn2): BatchNorm2d(512, eps=1e-05, momentum=0.1, affine=True, track_running_stats=True)
      )
      (conv6): ResBlock(
        (conv1): Conv2d(512, 1024, kernel_size=(3, 3), stride=(2, 2), padding=(1, 1))
        (bn1): BatchNorm2d(1024, eps=1e-05, momentum=0.1, affine=True, track_running_stats=True)
        (relu): ReLU(inplace)
        (conv2): Conv2d(1024, 1024, kernel_size=(3, 3), stride=(1, 1), padding=(1, 1))
        (bn2): BatchNorm2d(1024, eps=1e-05, momentum=0.1, affine=True, track_running_stats=True)
        (shortcut): Sequential(
          (0): Conv2d(512, 1024, kernel_size=(1, 1), stride=(2, 2))
          (1): BatchNorm2d(1024, eps=1e-05, momentum=0.1, affine=True, track_running_stats=True)
        )
      )
      (conv6_1): ResBlock(
        (conv1): Conv2d(1024, 1024, kernel_size=(3, 3), stride=(1, 1), padding=(1, 1))
        (bn1): BatchNorm2d(1024, eps=1e-05, momentum=0.1, affine=True, track_running_stats=True)
        (relu): ReLU(inplace)
        (conv2): Conv2d(1024, 1024, kernel_size=(3, 3), stride=(1, 1), padding=(1, 1))
        (bn2): BatchNorm2d(1024, eps=1e-05, momentum=0.1, affine=True, track_running_stats=True)
      )
      (pred_res6): Conv2d(1024, 1, kernel_size=(3, 3), stride=(1, 1), padding=(1, 1), bias=False)
      (iconv5): ConvTranspose2d(1025, 512, kernel_size=(3, 3), stride=(1, 1), padding=(1, 1))
      (iconv4): ConvTranspose2d(769, 256, kernel_size=(3, 3), stride=(1, 1), padding=(1, 1))
      (iconv3): ConvTranspose2d(385, 128, kernel_size=(3, 3), stride=(1, 1), padding=(1, 1))
      (iconv2): ConvTranspose2d(193, 64, kernel_size=(3, 3), stride=(1, 1), padding=(1, 1))
      (iconv1): ConvTranspose2d(97, 32, kernel_size=(3, 3), stride=(1, 1), padding=(1, 1))
      (iconv0): ConvTranspose2d(21, 16, kernel_size=(3, 3), stride=(1, 1), padding=(1, 1))
      (upconv5): Sequential(
        (0): ConvTranspose2d(1024, 512, kernel_size=(4, 4), stride=(2, 2), padding=(1, 1), bias=False)
        (1): LeakyReLU(negative_slope=0.1, inplace)
      )
      (upflow6to5): ConvTranspose2d(1, 1, kernel_size=(4, 4), stride=(2, 2), padding=(1, 1), bias=False)
      (pred_res5): Conv2d(512, 1, kernel_size=(3, 3), stride=(1, 1), padding=(1, 1), bias=False)
      (upconv4): Sequential(
        (0): ConvTranspose2d(512, 256, kernel_size=(4, 4), stride=(2, 2), padding=(1, 1), bias=False)
        (1): LeakyReLU(negative_slope=0.1, inplace)
      )
      (upflow5to4): ConvTranspose2d(1, 1, kernel_size=(4, 4), stride=(2, 2), padding=(1, 1), bias=False)
      (pred_res4): Conv2d(256, 1, kernel_size=(3, 3), stride=(1, 1), padding=(1, 1), bias=False)
      (upconv3): Sequential(
        (0): ConvTranspose2d(256, 128, kernel_size=(4, 4), stride=(2, 2), padding=(1, 1), bias=False)
        (1): LeakyReLU(negative_slope=0.1, inplace)
      )
      (upflow4to3): ConvTranspose2d(1, 1, kernel_size=(4, 4), stride=(2, 2), padding=(1, 1), bias=False)
      (pred_res3): Conv2d(128, 1, kernel_size=(3, 3), stride=(1, 1), padding=(1, 1), bias=False)
      (upconv2): Sequential(
        (0): ConvTranspose2d(128, 64, kernel_size=(4, 4), stride=(2, 2), padding=(1, 1), bias=False)
        (1): LeakyReLU(negative_slope=0.1, inplace)
      )
      (upflow3to2): ConvTranspose2d(1, 1, kernel_size=(4, 4), stride=(2, 2), padding=(1, 1), bias=False)
      (pred_res2): Conv2d(64, 1, kernel_size=(3, 3), stride=(1, 1), padding=(1, 1), bias=False)
      (upconv1): Sequential(
        (0): ConvTranspose2d(64, 32, kernel_size=(4, 4), stride=(2, 2), padding=(1, 1), bias=False)
        (1): LeakyReLU(negative_slope=0.1, inplace)
      )
      (upflow2to1): ConvTranspose2d(1, 1, kernel_size=(4, 4), stride=(2, 2), padding=(1, 1), bias=False)
      (pred_res1): Conv2d(32, 1, kernel_size=(3, 3), stride=(1, 1), padding=(1, 1), bias=False)
      (upconv0): Sequential(
        (0): ConvTranspose2d(32, 16, kernel_size=(4, 4), stride=(2, 2), padding=(1, 1), bias=False)
        (1): LeakyReLU(negative_slope=0.1, inplace)
      )
      (upflow1to0): ConvTranspose2d(1, 1, kernel_size=(4, 4), stride=(2, 2), padding=(1, 1), bias=False)
      (pred_res0): Conv2d(16, 1, kernel_size=(3, 3), stride=(1, 1), padding=(1, 1), bias=False)
      (relu): ReLU()
    )
    (relu): ReLU()
  )
)"
epoch	time_stamp	train_loss	train_EPE	EPE	lr
Namespace(augment=0, batchSize=8, beta=0.999, cuda=True, datapath='/home/vradmin/data/virtual3', devices='0,1,2,3', domain_transfer=False, endEpoch=200, flowDiv=1.0, logFile='girl-ir-train-dispCSRes.log', lr=0.01, manualSeed=9808, model='', momentum=0.9, outf='./models/girl-ir-dispCSRes', showFreq=1, startEpoch=0, tdlist='real_sgm_release.list', trainlist='./lists/exclude_1536_TRAIN.list', vallist='./lists/exclude_1536_TEST.list', workers=8)
"DataParallel(
  (module): DispNetCSRes(
    (dispnetc): DispNetC(
      (conv1): Sequential(
        (0): Conv2d(4, 64, kernel_size=(7, 7), stride=(2, 2), padding=(3, 3))
        (1): LeakyReLU(negative_slope=0.1, inplace)
      )
      (conv2): ResBlock(
        (conv1): Conv2d(64, 128, kernel_size=(3, 3), stride=(2, 2), padding=(1, 1))
        (bn1): BatchNorm2d(128, eps=1e-05, momentum=0.1, affine=True, track_running_stats=True)
        (relu): ReLU(inplace)
        (conv2): Conv2d(128, 128, kernel_size=(3, 3), stride=(1, 1), padding=(1, 1))
        (bn2): BatchNorm2d(128, eps=1e-05, momentum=0.1, affine=True, track_running_stats=True)
        (shortcut): Sequential(
          (0): Conv2d(64, 128, kernel_size=(1, 1), stride=(2, 2))
          (1): BatchNorm2d(128, eps=1e-05, momentum=0.1, affine=True, track_running_stats=True)
        )
      )
      (conv3): ResBlock(
        (conv1): Conv2d(128, 256, kernel_size=(3, 3), stride=(2, 2), padding=(1, 1))
        (bn1): BatchNorm2d(256, eps=1e-05, momentum=0.1, affine=True, track_running_stats=True)
        (relu): ReLU(inplace)
        (conv2): Conv2d(256, 256, kernel_size=(3, 3), stride=(1, 1), padding=(1, 1))
        (bn2): BatchNorm2d(256, eps=1e-05, momentum=0.1, affine=True, track_running_stats=True)
        (shortcut): Sequential(
          (0): Conv2d(128, 256, kernel_size=(1, 1), stride=(2, 2))
          (1): BatchNorm2d(256, eps=1e-05, momentum=0.1, affine=True, track_running_stats=True)
        )
      )
      (conv_redir): ResBlock(
        (conv1): Conv2d(256, 32, kernel_size=(3, 3), stride=(1, 1), padding=(1, 1))
        (bn1): BatchNorm2d(32, eps=1e-05, momentum=0.1, affine=True, track_running_stats=True)
        (relu): ReLU(inplace)
        (conv2): Conv2d(32, 32, kernel_size=(3, 3), stride=(1, 1), padding=(1, 1))
        (bn2): BatchNorm2d(32, eps=1e-05, momentum=0.1, affine=True, track_running_stats=True)
        (shortcut): Sequential(
          (0): Conv2d(256, 32, kernel_size=(1, 1), stride=(1, 1))
          (1): BatchNorm2d(32, eps=1e-05, momentum=0.1, affine=True, track_running_stats=True)
        )
      )
      (corr): Correlation()
      (corr_activation): LeakyReLU(negative_slope=0.1, inplace)
      (conv3_1): ResBlock(
        (conv1): Conv2d(473, 256, kernel_size=(3, 3), stride=(1, 1), padding=(1, 1))
        (bn1): BatchNorm2d(256, eps=1e-05, momentum=0.1, affine=True, track_running_stats=True)
        (relu): ReLU(inplace)
        (conv2): Conv2d(256, 256, kernel_size=(3, 3), stride=(1, 1), padding=(1, 1))
        (bn2): BatchNorm2d(256, eps=1e-05, momentum=0.1, affine=True, track_running_stats=True)
        (shortcut): Sequential(
          (0): Conv2d(473, 256, kernel_size=(1, 1), stride=(1, 1))
          (1): BatchNorm2d(256, eps=1e-05, momentum=0.1, affine=True, track_running_stats=True)
        )
      )
      (conv4): ResBlock(
        (conv1): Conv2d(256, 512, kernel_size=(3, 3), stride=(2, 2), padding=(1, 1))
        (bn1): BatchNorm2d(512, eps=1e-05, momentum=0.1, affine=True, track_running_stats=True)
        (relu): ReLU(inplace)
        (conv2): Conv2d(512, 512, kernel_size=(3, 3), stride=(1, 1), padding=(1, 1))
        (bn2): BatchNorm2d(512, eps=1e-05, momentum=0.1, affine=True, track_running_stats=True)
        (shortcut): Sequential(
          (0): Conv2d(256, 512, kernel_size=(1, 1), stride=(2, 2))
          (1): BatchNorm2d(512, eps=1e-05, momentum=0.1, affine=True, track_running_stats=True)
        )
      )
      (conv4_1): ResBlock(
        (conv1): Conv2d(512, 512, kernel_size=(3, 3), stride=(1, 1), padding=(1, 1))
        (bn1): BatchNorm2d(512, eps=1e-05, momentum=0.1, affine=True, track_running_stats=True)
        (relu): ReLU(inplace)
        (conv2): Conv2d(512, 512, kernel_size=(3, 3), stride=(1, 1), padding=(1, 1))
        (bn2): BatchNorm2d(512, eps=1e-05, momentum=0.1, affine=True, track_running_stats=True)
      )
      (conv5): ResBlock(
        (conv1): Conv2d(512, 512, kernel_size=(3, 3), stride=(2, 2), padding=(1, 1))
        (bn1): BatchNorm2d(512, eps=1e-05, momentum=0.1, affine=True, track_running_stats=True)
        (relu): ReLU(inplace)
        (conv2): Conv2d(512, 512, kernel_size=(3, 3), stride=(1, 1), padding=(1, 1))
        (bn2): BatchNorm2d(512, eps=1e-05, momentum=0.1, affine=True, track_running_stats=True)
        (shortcut): Sequential(
          (0): Conv2d(512, 512, kernel_size=(1, 1), stride=(2, 2))
          (1): BatchNorm2d(512, eps=1e-05, momentum=0.1, affine=True, track_running_stats=True)
        )
      )
      (conv5_1): ResBlock(
        (conv1): Conv2d(512, 512, kernel_size=(3, 3), stride=(1, 1), padding=(1, 1))
        (bn1): BatchNorm2d(512, eps=1e-05, momentum=0.1, affine=True, track_running_stats=True)
        (relu): ReLU(inplace)
        (conv2): Conv2d(512, 512, kernel_size=(3, 3), stride=(1, 1), padding=(1, 1))
        (bn2): BatchNorm2d(512, eps=1e-05, momentum=0.1, affine=True, track_running_stats=True)
      )
      (conv6): ResBlock(
        (conv1): Conv2d(512, 1024, kernel_size=(3, 3), stride=(2, 2), padding=(1, 1))
        (bn1): BatchNorm2d(1024, eps=1e-05, momentum=0.1, affine=True, track_running_stats=True)
        (relu): ReLU(inplace)
        (conv2): Conv2d(1024, 1024, kernel_size=(3, 3), stride=(1, 1), padding=(1, 1))
        (bn2): BatchNorm2d(1024, eps=1e-05, momentum=0.1, affine=True, track_running_stats=True)
        (shortcut): Sequential(
          (0): Conv2d(512, 1024, kernel_size=(1, 1), stride=(2, 2))
          (1): BatchNorm2d(1024, eps=1e-05, momentum=0.1, affine=True, track_running_stats=True)
        )
      )
      (conv6_1): ResBlock(
        (conv1): Conv2d(1024, 1024, kernel_size=(3, 3), stride=(1, 1), padding=(1, 1))
        (bn1): BatchNorm2d(1024, eps=1e-05, momentum=0.1, affine=True, track_running_stats=True)
        (relu): ReLU(inplace)
        (conv2): Conv2d(1024, 1024, kernel_size=(3, 3), stride=(1, 1), padding=(1, 1))
        (bn2): BatchNorm2d(1024, eps=1e-05, momentum=0.1, affine=True, track_running_stats=True)
      )
      (pred_flow6): Conv2d(1024, 1, kernel_size=(3, 3), stride=(1, 1), padding=(1, 1), bias=False)
      (iconv5): ConvTranspose2d(1025, 512, kernel_size=(3, 3), stride=(1, 1), padding=(1, 1))
      (iconv4): ConvTranspose2d(769, 256, kernel_size=(3, 3), stride=(1, 1), padding=(1, 1))
      (iconv3): ConvTranspose2d(385, 128, kernel_size=(3, 3), stride=(1, 1), padding=(1, 1))
      (iconv2): ConvTranspose2d(193, 64, kernel_size=(3, 3), stride=(1, 1), padding=(1, 1))
      (iconv1): ConvTranspose2d(97, 32, kernel_size=(3, 3), stride=(1, 1), padding=(1, 1))
      (iconv0): ConvTranspose2d(21, 16, kernel_size=(3, 3), stride=(1, 1), padding=(1, 1))
      (upconv5): Sequential(
        (0): ConvTranspose2d(1024, 512, kernel_size=(4, 4), stride=(2, 2), padding=(1, 1), bias=False)
        (1): LeakyReLU(negative_slope=0.1, inplace)
      )
      (upflow6to5): ConvTranspose2d(1, 1, kernel_size=(4, 4), stride=(2, 2), padding=(1, 1), bias=False)
      (pred_flow5): Conv2d(512, 1, kernel_size=(3, 3), stride=(1, 1), padding=(1, 1), bias=False)
      (upconv4): Sequential(
        (0): ConvTranspose2d(512, 256, kernel_size=(4, 4), stride=(2, 2), padding=(1, 1), bias=False)
        (1): LeakyReLU(negative_slope=0.1, inplace)
      )
      (upflow5to4): ConvTranspose2d(1, 1, kernel_size=(4, 4), stride=(2, 2), padding=(1, 1), bias=False)
      (pred_flow4): Conv2d(256, 1, kernel_size=(3, 3), stride=(1, 1), padding=(1, 1), bias=False)
      (upconv3): Sequential(
        (0): ConvTranspose2d(256, 128, kernel_size=(4, 4), stride=(2, 2), padding=(1, 1), bias=False)
        (1): LeakyReLU(negative_slope=0.1, inplace)
      )
      (upflow4to3): ConvTranspose2d(1, 1, kernel_size=(4, 4), stride=(2, 2), padding=(1, 1), bias=False)
      (pred_flow3): Conv2d(128, 1, kernel_size=(3, 3), stride=(1, 1), padding=(1, 1), bias=False)
      (upconv2): Sequential(
        (0): ConvTranspose2d(128, 64, kernel_size=(4, 4), stride=(2, 2), padding=(1, 1), bias=False)
        (1): LeakyReLU(negative_slope=0.1, inplace)
      )
      (upflow3to2): ConvTranspose2d(1, 1, kernel_size=(4, 4), stride=(2, 2), padding=(1, 1), bias=False)
      (pred_flow2): Conv2d(64, 1, kernel_size=(3, 3), stride=(1, 1), padding=(1, 1), bias=False)
      (upconv1): Sequential(
        (0): ConvTranspose2d(64, 32, kernel_size=(4, 4), stride=(2, 2), padding=(1, 1), bias=False)
        (1): LeakyReLU(negative_slope=0.1, inplace)
      )
      (upflow2to1): ConvTranspose2d(1, 1, kernel_size=(4, 4), stride=(2, 2), padding=(1, 1), bias=False)
      (pred_flow1): Conv2d(32, 1, kernel_size=(3, 3), stride=(1, 1), padding=(1, 1), bias=False)
      (upconv0): Sequential(
        (0): ConvTranspose2d(32, 16, kernel_size=(4, 4), stride=(2, 2), padding=(1, 1), bias=False)
        (1): LeakyReLU(negative_slope=0.1, inplace)
      )
      (upflow1to0): ConvTranspose2d(1, 1, kernel_size=(4, 4), stride=(2, 2), padding=(1, 1), bias=False)
      (pred_flow0): Conv2d(16, 1, kernel_size=(3, 3), stride=(1, 1), padding=(1, 1), bias=False)
    )
    (channelnorm): ChannelNorm()
    (resample1): Resample2d()
    (dispnetres): DispNetRes(
      (conv1): Sequential(
        (0): Conv2d(14, 64, kernel_size=(7, 7), stride=(2, 2), padding=(3, 3))
        (1): LeakyReLU(negative_slope=0.1, inplace)
      )
      (conv2): ResBlock(
        (conv1): Conv2d(64, 128, kernel_size=(3, 3), stride=(2, 2), padding=(1, 1))
        (bn1): BatchNorm2d(128, eps=1e-05, momentum=0.1, affine=True, track_running_stats=True)
        (relu): ReLU(inplace)
        (conv2): Conv2d(128, 128, kernel_size=(3, 3), stride=(1, 1), padding=(1, 1))
        (bn2): BatchNorm2d(128, eps=1e-05, momentum=0.1, affine=True, track_running_stats=True)
        (shortcut): Sequential(
          (0): Conv2d(64, 128, kernel_size=(1, 1), stride=(2, 2))
          (1): BatchNorm2d(128, eps=1e-05, momentum=0.1, affine=True, track_running_stats=True)
        )
      )
      (conv3): ResBlock(
        (conv1): Conv2d(128, 256, kernel_size=(3, 3), stride=(2, 2), padding=(1, 1))
        (bn1): BatchNorm2d(256, eps=1e-05, momentum=0.1, affine=True, track_running_stats=True)
        (relu): ReLU(inplace)
        (conv2): Conv2d(256, 256, kernel_size=(3, 3), stride=(1, 1), padding=(1, 1))
        (bn2): BatchNorm2d(256, eps=1e-05, momentum=0.1, affine=True, track_running_stats=True)
        (shortcut): Sequential(
          (0): Conv2d(128, 256, kernel_size=(1, 1), stride=(2, 2))
          (1): BatchNorm2d(256, eps=1e-05, momentum=0.1, affine=True, track_running_stats=True)
        )
      )
      (conv3_1): ResBlock(
        (conv1): Conv2d(256, 256, kernel_size=(3, 3), stride=(1, 1), padding=(1, 1))
        (bn1): BatchNorm2d(256, eps=1e-05, momentum=0.1, affine=True, track_running_stats=True)
        (relu): ReLU(inplace)
        (conv2): Conv2d(256, 256, kernel_size=(3, 3), stride=(1, 1), padding=(1, 1))
        (bn2): BatchNorm2d(256, eps=1e-05, momentum=0.1, affine=True, track_running_stats=True)
      )
      (conv4): ResBlock(
        (conv1): Conv2d(256, 512, kernel_size=(3, 3), stride=(2, 2), padding=(1, 1))
        (bn1): BatchNorm2d(512, eps=1e-05, momentum=0.1, affine=True, track_running_stats=True)
        (relu): ReLU(inplace)
        (conv2): Conv2d(512, 512, kernel_size=(3, 3), stride=(1, 1), padding=(1, 1))
        (bn2): BatchNorm2d(512, eps=1e-05, momentum=0.1, affine=True, track_running_stats=True)
        (shortcut): Sequential(
          (0): Conv2d(256, 512, kernel_size=(1, 1), stride=(2, 2))
          (1): BatchNorm2d(512, eps=1e-05, momentum=0.1, affine=True, track_running_stats=True)
        )
      )
      (conv4_1): ResBlock(
        (conv1): Conv2d(512, 512, kernel_size=(3, 3), stride=(1, 1), padding=(1, 1))
        (bn1): BatchNorm2d(512, eps=1e-05, momentum=0.1, affine=True, track_running_stats=True)
        (relu): ReLU(inplace)
        (conv2): Conv2d(512, 512, kernel_size=(3, 3), stride=(1, 1), padding=(1, 1))
        (bn2): BatchNorm2d(512, eps=1e-05, momentum=0.1, affine=True, track_running_stats=True)
      )
      (conv5): ResBlock(
        (conv1): Conv2d(512, 512, kernel_size=(3, 3), stride=(2, 2), padding=(1, 1))
        (bn1): BatchNorm2d(512, eps=1e-05, momentum=0.1, affine=True, track_running_stats=True)
        (relu): ReLU(inplace)
        (conv2): Conv2d(512, 512, kernel_size=(3, 3), stride=(1, 1), padding=(1, 1))
        (bn2): BatchNorm2d(512, eps=1e-05, momentum=0.1, affine=True, track_running_stats=True)
        (shortcut): Sequential(
          (0): Conv2d(512, 512, kernel_size=(1, 1), stride=(2, 2))
          (1): BatchNorm2d(512, eps=1e-05, momentum=0.1, affine=True, track_running_stats=True)
        )
      )
      (conv5_1): ResBlock(
        (conv1): Conv2d(512, 512, kernel_size=(3, 3), stride=(1, 1), padding=(1, 1))
        (bn1): BatchNorm2d(512, eps=1e-05, momentum=0.1, affine=True, track_running_stats=True)
        (relu): ReLU(inplace)
        (conv2): Conv2d(512, 512, kernel_size=(3, 3), stride=(1, 1), padding=(1, 1))
        (bn2): BatchNorm2d(512, eps=1e-05, momentum=0.1, affine=True, track_running_stats=True)
      )
      (conv6): ResBlock(
        (conv1): Conv2d(512, 1024, kernel_size=(3, 3), stride=(2, 2), padding=(1, 1))
        (bn1): BatchNorm2d(1024, eps=1e-05, momentum=0.1, affine=True, track_running_stats=True)
        (relu): ReLU(inplace)
        (conv2): Conv2d(1024, 1024, kernel_size=(3, 3), stride=(1, 1), padding=(1, 1))
        (bn2): BatchNorm2d(1024, eps=1e-05, momentum=0.1, affine=True, track_running_stats=True)
        (shortcut): Sequential(
          (0): Conv2d(512, 1024, kernel_size=(1, 1), stride=(2, 2))
          (1): BatchNorm2d(1024, eps=1e-05, momentum=0.1, affine=True, track_running_stats=True)
        )
      )
      (conv6_1): ResBlock(
        (conv1): Conv2d(1024, 1024, kernel_size=(3, 3), stride=(1, 1), padding=(1, 1))
        (bn1): BatchNorm2d(1024, eps=1e-05, momentum=0.1, affine=True, track_running_stats=True)
        (relu): ReLU(inplace)
        (conv2): Conv2d(1024, 1024, kernel_size=(3, 3), stride=(1, 1), padding=(1, 1))
        (bn2): BatchNorm2d(1024, eps=1e-05, momentum=0.1, affine=True, track_running_stats=True)
      )
      (pred_res6): Conv2d(1024, 1, kernel_size=(3, 3), stride=(1, 1), padding=(1, 1), bias=False)
      (iconv5): ConvTranspose2d(1025, 512, kernel_size=(3, 3), stride=(1, 1), padding=(1, 1))
      (iconv4): ConvTranspose2d(769, 256, kernel_size=(3, 3), stride=(1, 1), padding=(1, 1))
      (iconv3): ConvTranspose2d(385, 128, kernel_size=(3, 3), stride=(1, 1), padding=(1, 1))
      (iconv2): ConvTranspose2d(193, 64, kernel_size=(3, 3), stride=(1, 1), padding=(1, 1))
      (iconv1): ConvTranspose2d(97, 32, kernel_size=(3, 3), stride=(1, 1), padding=(1, 1))
      (iconv0): ConvTranspose2d(21, 16, kernel_size=(3, 3), stride=(1, 1), padding=(1, 1))
      (upconv5): Sequential(
        (0): ConvTranspose2d(1024, 512, kernel_size=(4, 4), stride=(2, 2), padding=(1, 1), bias=False)
        (1): LeakyReLU(negative_slope=0.1, inplace)
      )
      (upflow6to5): ConvTranspose2d(1, 1, kernel_size=(4, 4), stride=(2, 2), padding=(1, 1), bias=False)
      (pred_res5): Conv2d(512, 1, kernel_size=(3, 3), stride=(1, 1), padding=(1, 1), bias=False)
      (upconv4): Sequential(
        (0): ConvTranspose2d(512, 256, kernel_size=(4, 4), stride=(2, 2), padding=(1, 1), bias=False)
        (1): LeakyReLU(negative_slope=0.1, inplace)
      )
      (upflow5to4): ConvTranspose2d(1, 1, kernel_size=(4, 4), stride=(2, 2), padding=(1, 1), bias=False)
      (pred_res4): Conv2d(256, 1, kernel_size=(3, 3), stride=(1, 1), padding=(1, 1), bias=False)
      (upconv3): Sequential(
        (0): ConvTranspose2d(256, 128, kernel_size=(4, 4), stride=(2, 2), padding=(1, 1), bias=False)
        (1): LeakyReLU(negative_slope=0.1, inplace)
      )
      (upflow4to3): ConvTranspose2d(1, 1, kernel_size=(4, 4), stride=(2, 2), padding=(1, 1), bias=False)
      (pred_res3): Conv2d(128, 1, kernel_size=(3, 3), stride=(1, 1), padding=(1, 1), bias=False)
      (upconv2): Sequential(
        (0): ConvTranspose2d(128, 64, kernel_size=(4, 4), stride=(2, 2), padding=(1, 1), bias=False)
        (1): LeakyReLU(negative_slope=0.1, inplace)
      )
      (upflow3to2): ConvTranspose2d(1, 1, kernel_size=(4, 4), stride=(2, 2), padding=(1, 1), bias=False)
      (pred_res2): Conv2d(64, 1, kernel_size=(3, 3), stride=(1, 1), padding=(1, 1), bias=False)
      (upconv1): Sequential(
        (0): ConvTranspose2d(64, 32, kernel_size=(4, 4), stride=(2, 2), padding=(1, 1), bias=False)
        (1): LeakyReLU(negative_slope=0.1, inplace)
      )
      (upflow2to1): ConvTranspose2d(1, 1, kernel_size=(4, 4), stride=(2, 2), padding=(1, 1), bias=False)
      (pred_res1): Conv2d(32, 1, kernel_size=(3, 3), stride=(1, 1), padding=(1, 1), bias=False)
      (upconv0): Sequential(
        (0): ConvTranspose2d(32, 16, kernel_size=(4, 4), stride=(2, 2), padding=(1, 1), bias=False)
        (1): LeakyReLU(negative_slope=0.1, inplace)
      )
      (upflow1to0): ConvTranspose2d(1, 1, kernel_size=(4, 4), stride=(2, 2), padding=(1, 1), bias=False)
      (pred_res0): Conv2d(16, 1, kernel_size=(3, 3), stride=(1, 1), padding=(1, 1), bias=False)
      (relu): ReLU()
    )
    (relu): ReLU()
  )
)"
epoch	time_stamp	train_loss	train_EPE	EPE	lr
Namespace(augment=0, batchSize=8, beta=0.999, cuda=True, datapath='/home/vradmin/data/virtual3', devices='0,1,2,3', domain_transfer=False, endEpoch=200, flowDiv=1.0, logFile='girl-ir-train-dispCSRes.log', lr=0.01, manualSeed=5287, model='', momentum=0.9, outf='./models/girl-ir-dispCSRes', showFreq=1, startEpoch=0, tdlist='real_sgm_release.list', trainlist='./lists/exclude_1536_TRAIN.list', vallist='./lists/exclude_1536_TEST.list', workers=16)
"DataParallel(
  (module): DispNetCSRes(
    (dispnetc): DispNetC(
      (conv1): Sequential(
        (0): Conv2d(4, 64, kernel_size=(7, 7), stride=(2, 2), padding=(3, 3))
        (1): LeakyReLU(negative_slope=0.1, inplace)
      )
      (conv2): ResBlock(
        (conv1): Conv2d(64, 128, kernel_size=(3, 3), stride=(2, 2), padding=(1, 1))
        (bn1): BatchNorm2d(128, eps=1e-05, momentum=0.1, affine=True, track_running_stats=True)
        (relu): ReLU(inplace)
        (conv2): Conv2d(128, 128, kernel_size=(3, 3), stride=(1, 1), padding=(1, 1))
        (bn2): BatchNorm2d(128, eps=1e-05, momentum=0.1, affine=True, track_running_stats=True)
        (shortcut): Sequential(
          (0): Conv2d(64, 128, kernel_size=(1, 1), stride=(2, 2))
          (1): BatchNorm2d(128, eps=1e-05, momentum=0.1, affine=True, track_running_stats=True)
        )
      )
      (conv3): ResBlock(
        (conv1): Conv2d(128, 256, kernel_size=(3, 3), stride=(2, 2), padding=(1, 1))
        (bn1): BatchNorm2d(256, eps=1e-05, momentum=0.1, affine=True, track_running_stats=True)
        (relu): ReLU(inplace)
        (conv2): Conv2d(256, 256, kernel_size=(3, 3), stride=(1, 1), padding=(1, 1))
        (bn2): BatchNorm2d(256, eps=1e-05, momentum=0.1, affine=True, track_running_stats=True)
        (shortcut): Sequential(
          (0): Conv2d(128, 256, kernel_size=(1, 1), stride=(2, 2))
          (1): BatchNorm2d(256, eps=1e-05, momentum=0.1, affine=True, track_running_stats=True)
        )
      )
      (conv_redir): ResBlock(
        (conv1): Conv2d(256, 32, kernel_size=(3, 3), stride=(1, 1), padding=(1, 1))
        (bn1): BatchNorm2d(32, eps=1e-05, momentum=0.1, affine=True, track_running_stats=True)
        (relu): ReLU(inplace)
        (conv2): Conv2d(32, 32, kernel_size=(3, 3), stride=(1, 1), padding=(1, 1))
        (bn2): BatchNorm2d(32, eps=1e-05, momentum=0.1, affine=True, track_running_stats=True)
        (shortcut): Sequential(
          (0): Conv2d(256, 32, kernel_size=(1, 1), stride=(1, 1))
          (1): BatchNorm2d(32, eps=1e-05, momentum=0.1, affine=True, track_running_stats=True)
        )
      )
      (corr): Correlation()
      (corr_activation): LeakyReLU(negative_slope=0.1, inplace)
      (conv3_1): ResBlock(
        (conv1): Conv2d(473, 256, kernel_size=(3, 3), stride=(1, 1), padding=(1, 1))
        (bn1): BatchNorm2d(256, eps=1e-05, momentum=0.1, affine=True, track_running_stats=True)
        (relu): ReLU(inplace)
        (conv2): Conv2d(256, 256, kernel_size=(3, 3), stride=(1, 1), padding=(1, 1))
        (bn2): BatchNorm2d(256, eps=1e-05, momentum=0.1, affine=True, track_running_stats=True)
        (shortcut): Sequential(
          (0): Conv2d(473, 256, kernel_size=(1, 1), stride=(1, 1))
          (1): BatchNorm2d(256, eps=1e-05, momentum=0.1, affine=True, track_running_stats=True)
        )
      )
      (conv4): ResBlock(
        (conv1): Conv2d(256, 512, kernel_size=(3, 3), stride=(2, 2), padding=(1, 1))
        (bn1): BatchNorm2d(512, eps=1e-05, momentum=0.1, affine=True, track_running_stats=True)
        (relu): ReLU(inplace)
        (conv2): Conv2d(512, 512, kernel_size=(3, 3), stride=(1, 1), padding=(1, 1))
        (bn2): BatchNorm2d(512, eps=1e-05, momentum=0.1, affine=True, track_running_stats=True)
        (shortcut): Sequential(
          (0): Conv2d(256, 512, kernel_size=(1, 1), stride=(2, 2))
          (1): BatchNorm2d(512, eps=1e-05, momentum=0.1, affine=True, track_running_stats=True)
        )
      )
      (conv4_1): ResBlock(
        (conv1): Conv2d(512, 512, kernel_size=(3, 3), stride=(1, 1), padding=(1, 1))
        (bn1): BatchNorm2d(512, eps=1e-05, momentum=0.1, affine=True, track_running_stats=True)
        (relu): ReLU(inplace)
        (conv2): Conv2d(512, 512, kernel_size=(3, 3), stride=(1, 1), padding=(1, 1))
        (bn2): BatchNorm2d(512, eps=1e-05, momentum=0.1, affine=True, track_running_stats=True)
      )
      (conv5): ResBlock(
        (conv1): Conv2d(512, 512, kernel_size=(3, 3), stride=(2, 2), padding=(1, 1))
        (bn1): BatchNorm2d(512, eps=1e-05, momentum=0.1, affine=True, track_running_stats=True)
        (relu): ReLU(inplace)
        (conv2): Conv2d(512, 512, kernel_size=(3, 3), stride=(1, 1), padding=(1, 1))
        (bn2): BatchNorm2d(512, eps=1e-05, momentum=0.1, affine=True, track_running_stats=True)
        (shortcut): Sequential(
          (0): Conv2d(512, 512, kernel_size=(1, 1), stride=(2, 2))
          (1): BatchNorm2d(512, eps=1e-05, momentum=0.1, affine=True, track_running_stats=True)
        )
      )
      (conv5_1): ResBlock(
        (conv1): Conv2d(512, 512, kernel_size=(3, 3), stride=(1, 1), padding=(1, 1))
        (bn1): BatchNorm2d(512, eps=1e-05, momentum=0.1, affine=True, track_running_stats=True)
        (relu): ReLU(inplace)
        (conv2): Conv2d(512, 512, kernel_size=(3, 3), stride=(1, 1), padding=(1, 1))
        (bn2): BatchNorm2d(512, eps=1e-05, momentum=0.1, affine=True, track_running_stats=True)
      )
      (conv6): ResBlock(
        (conv1): Conv2d(512, 1024, kernel_size=(3, 3), stride=(2, 2), padding=(1, 1))
        (bn1): BatchNorm2d(1024, eps=1e-05, momentum=0.1, affine=True, track_running_stats=True)
        (relu): ReLU(inplace)
        (conv2): Conv2d(1024, 1024, kernel_size=(3, 3), stride=(1, 1), padding=(1, 1))
        (bn2): BatchNorm2d(1024, eps=1e-05, momentum=0.1, affine=True, track_running_stats=True)
        (shortcut): Sequential(
          (0): Conv2d(512, 1024, kernel_size=(1, 1), stride=(2, 2))
          (1): BatchNorm2d(1024, eps=1e-05, momentum=0.1, affine=True, track_running_stats=True)
        )
      )
      (conv6_1): ResBlock(
        (conv1): Conv2d(1024, 1024, kernel_size=(3, 3), stride=(1, 1), padding=(1, 1))
        (bn1): BatchNorm2d(1024, eps=1e-05, momentum=0.1, affine=True, track_running_stats=True)
        (relu): ReLU(inplace)
        (conv2): Conv2d(1024, 1024, kernel_size=(3, 3), stride=(1, 1), padding=(1, 1))
        (bn2): BatchNorm2d(1024, eps=1e-05, momentum=0.1, affine=True, track_running_stats=True)
      )
      (pred_flow6): Conv2d(1024, 1, kernel_size=(3, 3), stride=(1, 1), padding=(1, 1), bias=False)
      (iconv5): ConvTranspose2d(1025, 512, kernel_size=(3, 3), stride=(1, 1), padding=(1, 1))
      (iconv4): ConvTranspose2d(769, 256, kernel_size=(3, 3), stride=(1, 1), padding=(1, 1))
      (iconv3): ConvTranspose2d(385, 128, kernel_size=(3, 3), stride=(1, 1), padding=(1, 1))
      (iconv2): ConvTranspose2d(193, 64, kernel_size=(3, 3), stride=(1, 1), padding=(1, 1))
      (iconv1): ConvTranspose2d(97, 32, kernel_size=(3, 3), stride=(1, 1), padding=(1, 1))
      (iconv0): ConvTranspose2d(21, 16, kernel_size=(3, 3), stride=(1, 1), padding=(1, 1))
      (upconv5): Sequential(
        (0): ConvTranspose2d(1024, 512, kernel_size=(4, 4), stride=(2, 2), padding=(1, 1), bias=False)
        (1): LeakyReLU(negative_slope=0.1, inplace)
      )
      (upflow6to5): ConvTranspose2d(1, 1, kernel_size=(4, 4), stride=(2, 2), padding=(1, 1), bias=False)
      (pred_flow5): Conv2d(512, 1, kernel_size=(3, 3), stride=(1, 1), padding=(1, 1), bias=False)
      (upconv4): Sequential(
        (0): ConvTranspose2d(512, 256, kernel_size=(4, 4), stride=(2, 2), padding=(1, 1), bias=False)
        (1): LeakyReLU(negative_slope=0.1, inplace)
      )
      (upflow5to4): ConvTranspose2d(1, 1, kernel_size=(4, 4), stride=(2, 2), padding=(1, 1), bias=False)
      (pred_flow4): Conv2d(256, 1, kernel_size=(3, 3), stride=(1, 1), padding=(1, 1), bias=False)
      (upconv3): Sequential(
        (0): ConvTranspose2d(256, 128, kernel_size=(4, 4), stride=(2, 2), padding=(1, 1), bias=False)
        (1): LeakyReLU(negative_slope=0.1, inplace)
      )
      (upflow4to3): ConvTranspose2d(1, 1, kernel_size=(4, 4), stride=(2, 2), padding=(1, 1), bias=False)
      (pred_flow3): Conv2d(128, 1, kernel_size=(3, 3), stride=(1, 1), padding=(1, 1), bias=False)
      (upconv2): Sequential(
        (0): ConvTranspose2d(128, 64, kernel_size=(4, 4), stride=(2, 2), padding=(1, 1), bias=False)
        (1): LeakyReLU(negative_slope=0.1, inplace)
      )
      (upflow3to2): ConvTranspose2d(1, 1, kernel_size=(4, 4), stride=(2, 2), padding=(1, 1), bias=False)
      (pred_flow2): Conv2d(64, 1, kernel_size=(3, 3), stride=(1, 1), padding=(1, 1), bias=False)
      (upconv1): Sequential(
        (0): ConvTranspose2d(64, 32, kernel_size=(4, 4), stride=(2, 2), padding=(1, 1), bias=False)
        (1): LeakyReLU(negative_slope=0.1, inplace)
      )
      (upflow2to1): ConvTranspose2d(1, 1, kernel_size=(4, 4), stride=(2, 2), padding=(1, 1), bias=False)
      (pred_flow1): Conv2d(32, 1, kernel_size=(3, 3), stride=(1, 1), padding=(1, 1), bias=False)
      (upconv0): Sequential(
        (0): ConvTranspose2d(32, 16, kernel_size=(4, 4), stride=(2, 2), padding=(1, 1), bias=False)
        (1): LeakyReLU(negative_slope=0.1, inplace)
      )
      (upflow1to0): ConvTranspose2d(1, 1, kernel_size=(4, 4), stride=(2, 2), padding=(1, 1), bias=False)
      (pred_flow0): Conv2d(16, 1, kernel_size=(3, 3), stride=(1, 1), padding=(1, 1), bias=False)
    )
    (channelnorm): ChannelNorm()
    (resample1): Resample2d()
    (dispnetres): DispNetRes(
      (conv1): Sequential(
        (0): Conv2d(14, 64, kernel_size=(7, 7), stride=(2, 2), padding=(3, 3))
        (1): LeakyReLU(negative_slope=0.1, inplace)
      )
      (conv2): ResBlock(
        (conv1): Conv2d(64, 128, kernel_size=(3, 3), stride=(2, 2), padding=(1, 1))
        (bn1): BatchNorm2d(128, eps=1e-05, momentum=0.1, affine=True, track_running_stats=True)
        (relu): ReLU(inplace)
        (conv2): Conv2d(128, 128, kernel_size=(3, 3), stride=(1, 1), padding=(1, 1))
        (bn2): BatchNorm2d(128, eps=1e-05, momentum=0.1, affine=True, track_running_stats=True)
        (shortcut): Sequential(
          (0): Conv2d(64, 128, kernel_size=(1, 1), stride=(2, 2))
          (1): BatchNorm2d(128, eps=1e-05, momentum=0.1, affine=True, track_running_stats=True)
        )
      )
      (conv3): ResBlock(
        (conv1): Conv2d(128, 256, kernel_size=(3, 3), stride=(2, 2), padding=(1, 1))
        (bn1): BatchNorm2d(256, eps=1e-05, momentum=0.1, affine=True, track_running_stats=True)
        (relu): ReLU(inplace)
        (conv2): Conv2d(256, 256, kernel_size=(3, 3), stride=(1, 1), padding=(1, 1))
        (bn2): BatchNorm2d(256, eps=1e-05, momentum=0.1, affine=True, track_running_stats=True)
        (shortcut): Sequential(
          (0): Conv2d(128, 256, kernel_size=(1, 1), stride=(2, 2))
          (1): BatchNorm2d(256, eps=1e-05, momentum=0.1, affine=True, track_running_stats=True)
        )
      )
      (conv3_1): ResBlock(
        (conv1): Conv2d(256, 256, kernel_size=(3, 3), stride=(1, 1), padding=(1, 1))
        (bn1): BatchNorm2d(256, eps=1e-05, momentum=0.1, affine=True, track_running_stats=True)
        (relu): ReLU(inplace)
        (conv2): Conv2d(256, 256, kernel_size=(3, 3), stride=(1, 1), padding=(1, 1))
        (bn2): BatchNorm2d(256, eps=1e-05, momentum=0.1, affine=True, track_running_stats=True)
      )
      (conv4): ResBlock(
        (conv1): Conv2d(256, 512, kernel_size=(3, 3), stride=(2, 2), padding=(1, 1))
        (bn1): BatchNorm2d(512, eps=1e-05, momentum=0.1, affine=True, track_running_stats=True)
        (relu): ReLU(inplace)
        (conv2): Conv2d(512, 512, kernel_size=(3, 3), stride=(1, 1), padding=(1, 1))
        (bn2): BatchNorm2d(512, eps=1e-05, momentum=0.1, affine=True, track_running_stats=True)
        (shortcut): Sequential(
          (0): Conv2d(256, 512, kernel_size=(1, 1), stride=(2, 2))
          (1): BatchNorm2d(512, eps=1e-05, momentum=0.1, affine=True, track_running_stats=True)
        )
      )
      (conv4_1): ResBlock(
        (conv1): Conv2d(512, 512, kernel_size=(3, 3), stride=(1, 1), padding=(1, 1))
        (bn1): BatchNorm2d(512, eps=1e-05, momentum=0.1, affine=True, track_running_stats=True)
        (relu): ReLU(inplace)
        (conv2): Conv2d(512, 512, kernel_size=(3, 3), stride=(1, 1), padding=(1, 1))
        (bn2): BatchNorm2d(512, eps=1e-05, momentum=0.1, affine=True, track_running_stats=True)
      )
      (conv5): ResBlock(
        (conv1): Conv2d(512, 512, kernel_size=(3, 3), stride=(2, 2), padding=(1, 1))
        (bn1): BatchNorm2d(512, eps=1e-05, momentum=0.1, affine=True, track_running_stats=True)
        (relu): ReLU(inplace)
        (conv2): Conv2d(512, 512, kernel_size=(3, 3), stride=(1, 1), padding=(1, 1))
        (bn2): BatchNorm2d(512, eps=1e-05, momentum=0.1, affine=True, track_running_stats=True)
        (shortcut): Sequential(
          (0): Conv2d(512, 512, kernel_size=(1, 1), stride=(2, 2))
          (1): BatchNorm2d(512, eps=1e-05, momentum=0.1, affine=True, track_running_stats=True)
        )
      )
      (conv5_1): ResBlock(
        (conv1): Conv2d(512, 512, kernel_size=(3, 3), stride=(1, 1), padding=(1, 1))
        (bn1): BatchNorm2d(512, eps=1e-05, momentum=0.1, affine=True, track_running_stats=True)
        (relu): ReLU(inplace)
        (conv2): Conv2d(512, 512, kernel_size=(3, 3), stride=(1, 1), padding=(1, 1))
        (bn2): BatchNorm2d(512, eps=1e-05, momentum=0.1, affine=True, track_running_stats=True)
      )
      (conv6): ResBlock(
        (conv1): Conv2d(512, 1024, kernel_size=(3, 3), stride=(2, 2), padding=(1, 1))
        (bn1): BatchNorm2d(1024, eps=1e-05, momentum=0.1, affine=True, track_running_stats=True)
        (relu): ReLU(inplace)
        (conv2): Conv2d(1024, 1024, kernel_size=(3, 3), stride=(1, 1), padding=(1, 1))
        (bn2): BatchNorm2d(1024, eps=1e-05, momentum=0.1, affine=True, track_running_stats=True)
        (shortcut): Sequential(
          (0): Conv2d(512, 1024, kernel_size=(1, 1), stride=(2, 2))
          (1): BatchNorm2d(1024, eps=1e-05, momentum=0.1, affine=True, track_running_stats=True)
        )
      )
      (conv6_1): ResBlock(
        (conv1): Conv2d(1024, 1024, kernel_size=(3, 3), stride=(1, 1), padding=(1, 1))
        (bn1): BatchNorm2d(1024, eps=1e-05, momentum=0.1, affine=True, track_running_stats=True)
        (relu): ReLU(inplace)
        (conv2): Conv2d(1024, 1024, kernel_size=(3, 3), stride=(1, 1), padding=(1, 1))
        (bn2): BatchNorm2d(1024, eps=1e-05, momentum=0.1, affine=True, track_running_stats=True)
      )
      (pred_res6): Conv2d(1024, 1, kernel_size=(3, 3), stride=(1, 1), padding=(1, 1), bias=False)
      (iconv5): ConvTranspose2d(1025, 512, kernel_size=(3, 3), stride=(1, 1), padding=(1, 1))
      (iconv4): ConvTranspose2d(769, 256, kernel_size=(3, 3), stride=(1, 1), padding=(1, 1))
      (iconv3): ConvTranspose2d(385, 128, kernel_size=(3, 3), stride=(1, 1), padding=(1, 1))
      (iconv2): ConvTranspose2d(193, 64, kernel_size=(3, 3), stride=(1, 1), padding=(1, 1))
      (iconv1): ConvTranspose2d(97, 32, kernel_size=(3, 3), stride=(1, 1), padding=(1, 1))
      (iconv0): ConvTranspose2d(21, 16, kernel_size=(3, 3), stride=(1, 1), padding=(1, 1))
      (upconv5): Sequential(
        (0): ConvTranspose2d(1024, 512, kernel_size=(4, 4), stride=(2, 2), padding=(1, 1), bias=False)
        (1): LeakyReLU(negative_slope=0.1, inplace)
      )
      (upflow6to5): ConvTranspose2d(1, 1, kernel_size=(4, 4), stride=(2, 2), padding=(1, 1), bias=False)
      (pred_res5): Conv2d(512, 1, kernel_size=(3, 3), stride=(1, 1), padding=(1, 1), bias=False)
      (upconv4): Sequential(
        (0): ConvTranspose2d(512, 256, kernel_size=(4, 4), stride=(2, 2), padding=(1, 1), bias=False)
        (1): LeakyReLU(negative_slope=0.1, inplace)
      )
      (upflow5to4): ConvTranspose2d(1, 1, kernel_size=(4, 4), stride=(2, 2), padding=(1, 1), bias=False)
      (pred_res4): Conv2d(256, 1, kernel_size=(3, 3), stride=(1, 1), padding=(1, 1), bias=False)
      (upconv3): Sequential(
        (0): ConvTranspose2d(256, 128, kernel_size=(4, 4), stride=(2, 2), padding=(1, 1), bias=False)
        (1): LeakyReLU(negative_slope=0.1, inplace)
      )
      (upflow4to3): ConvTranspose2d(1, 1, kernel_size=(4, 4), stride=(2, 2), padding=(1, 1), bias=False)
      (pred_res3): Conv2d(128, 1, kernel_size=(3, 3), stride=(1, 1), padding=(1, 1), bias=False)
      (upconv2): Sequential(
        (0): ConvTranspose2d(128, 64, kernel_size=(4, 4), stride=(2, 2), padding=(1, 1), bias=False)
        (1): LeakyReLU(negative_slope=0.1, inplace)
      )
      (upflow3to2): ConvTranspose2d(1, 1, kernel_size=(4, 4), stride=(2, 2), padding=(1, 1), bias=False)
      (pred_res2): Conv2d(64, 1, kernel_size=(3, 3), stride=(1, 1), padding=(1, 1), bias=False)
      (upconv1): Sequential(
        (0): ConvTranspose2d(64, 32, kernel_size=(4, 4), stride=(2, 2), padding=(1, 1), bias=False)
        (1): LeakyReLU(negative_slope=0.1, inplace)
      )
      (upflow2to1): ConvTranspose2d(1, 1, kernel_size=(4, 4), stride=(2, 2), padding=(1, 1), bias=False)
      (pred_res1): Conv2d(32, 1, kernel_size=(3, 3), stride=(1, 1), padding=(1, 1), bias=False)
      (upconv0): Sequential(
        (0): ConvTranspose2d(32, 16, kernel_size=(4, 4), stride=(2, 2), padding=(1, 1), bias=False)
        (1): LeakyReLU(negative_slope=0.1, inplace)
      )
      (upflow1to0): ConvTranspose2d(1, 1, kernel_size=(4, 4), stride=(2, 2), padding=(1, 1), bias=False)
      (pred_res0): Conv2d(16, 1, kernel_size=(3, 3), stride=(1, 1), padding=(1, 1), bias=False)
      (relu): ReLU()
    )
    (relu): ReLU()
  )
)"
epoch	time_stamp	train_loss	train_EPE	EPE	lr
0	2018-06-25 14:57:23	79894.42245066045	2676.586545214725	93.0777795659671	0.01
1	2018-06-25 16:58:19	134.92545133578872	97.46606496130079	93.0777795659671	0.01
2	2018-06-25 18:58:38	114.32455397843259	96.63701445019488	93.0777795659671	0.01
…
